TrainingLogs/InverseC/Epoch_12.pt (torch, 138511 bytes, 7 tensors)

fc1.weight f4 [128, 5]
00000000: 3d81 a1bd efdc 283e 4c99 c7bb 090f c9bd
00000010: 5fc3 1b3e c6c1 af3a f5cc c0be f98e 39bd
00000020: 12f8 ff3e bbe0 013d b200 6fbe d447 9c3e
00000030: 679a 593c a99e 33be 353d 41be 8497 e63d
00000040: 8dce 0d3c 77c7 1fbc d0e7 13be ffe2 c33b
00000050: d6e8 553e bef4 f2be b0c8 4d3c 3534 b23d
00000060: 74d4 be3d 01b8 803e 3fed bf3d e849 a83d
00000070: d367 efbd f9ce 613d 3e9a 81bd af40 673e
00000080: f4b0 ac3d 77fe 37be aa52 0bbe bedd 653d
00000090: c4f9 6ebe 27da e23c 35e7 b63b 7bbd 253e
000000a0: 30ca 613e 92f1 acbe f3c8 40bc 7861 08bd
000000b0: dfc4 f83c ab42 ca3e b0dd 11bf 7093 e83b
000000c0: 07b2 933e 9ae1 23bd 348b b5be 4e3e 093f
000000d0: 44c0 9abc 9954 a8be 6f18 b7bd a994 c0be
000000e0: 041b f33e 4d1d 3c3b 2310 72be bd6e 81be
000000f0: 5fb4 d53d c6eb 34bd 936a e63b a574 44be
00000100: f263 32bd 259d b0be 5dee e63e f2f6 9abc
00000110: 31d3 49be 325f 63bd 895c 4cbe e2de 853e
00000120: 56d3 eeba ecfc 1ebd 4567 2cbc f5d5 023c
00000130: 0a8e ee3d 72f3 f63c 37e8 0fbe 3c1c cd3d
00000140: f6f9 233f 6cb5 25bf 3e2a 1bbc 4c62 a43e
00000150: d5f8 bbbc 96d3 70be d8a5 e73e 9128 a0bd
00000160: 33c4 bbbe fc4a 0bbe 705e e73e 9b48 adbe
00000170: 9c5c ccbc b10b 033e e3b9 cc3d eae8 72be
00000180: f86c f23d ffeb 4d3d 401e 433e ce55 51bd
00000190: 6b5c 203b f17c bfbd 7b20 85bc 0887 ea3d
000001a0: 2f44 92bd a6a2 b0be 22ca 6e3e f2e1 623d
000001b0: 93a7 fabd 2f9b 8abd a5df 01be 8492 713e
000001c0: 0ac9 babc 13ca 163c 4aba 8e3c 34a7 663e
000001d0: 7528 9ebe 3735 3ebc 08b8 323e 9166 053e
000001e0: 1f90 18bf 839a 173f f189 7b3c 53e3 afbe
000001f0: a71f 00bd af9e 0ebf b62a b33e c3b5 23bc
00000200: 80d9 8fbd ee83 f3ba 182c 31be 3d63 b23d
00000210: 0f86 94bd 0b3b 183e d4d3 073e d11b 583e
00000220: c65b 743e a0e5 81bc 3720 bcbe ffb2 2a3e
00000230: 9a80 373d 28c7 0abe ffe1 2b3d 5d07 00be
00000240: 35bc 83bd 4c98 8ebe f5a2 003f fa61 793c
00000250: b9d3 4fbe 1e57 9d3d ee21 ddbe e80c df3e
00000260: a2bb 9d3c 2006 c83d 4cee 433e fb1e cfbd
00000270: 566a 913e dde3 dc3c 62aa 673d 5b85 2bbe
00000280: 4921 8fbe 4d34 7c3e 6b9d 103d b206 b93d
00000290: 51eb 233e 8a28 4fbe b547 55be c465 14bd
000002a0: 35ac 8b3e f0d7 d13d c84b 8bbe c5e8 e03e
000002b0: 11cd 3d3d 8e8e dbbd a931 273e 8875 dd3d
000002c0: 64bf 6a3d 67da 00bd 0ee8 0abe d150 81be
000002d0: ce0c 813e a4c7 eabe e8e7 70bc e2ec 8e3e
000002e0: 30c1 17be 3725 a13e 7175 19bf ad8f 15bc
000002f0: 4642 ae3e 76da fcbd babb 1bbe e70c b23d
00000300: 8473 58bd 4433 1a3e e91a e43d d4f7 b8be
00000310: 3fcd 143f 04ea 0d38 015b bdbd 0b35 a13c
00000320: 6305 54be 2c2f f43e a290 e63c b096 aebe
00000330: 3275 ffbc d18b 80bd af8b 8f3d c47a 24bd
00000340: 6382 ab3d 7778 0fbd 08d0 903e 307c c0be
00000350: 58c5 83bd c3e2 973d 5d13 6cbe a322 823e
00000360: 0e6f abbe b6bf 6abd 44ec 203e e32f 94bd
00000370: 4e5c 8ebd 61fa a43e 980f 163c 329c 9fbe
00000380: 30f9 853e 2483 70be 7ec9 fb3e e080 27bc
00000390: 3a79 25be 801c 37bd 0477 c93c 7318 aa3d
000003a0: d09c 40bd dfdc ddbd 6879 42be 91f6 a73c
000003b0: f620 c3bb 0340 08bd 7879 b23d 9237 d33c
000003c0: 0385 7d3e 204a ab3d bcc7 113d 0623 71be
000003d0: 8fa0 61bd 04a4 62be d48b c13e 8fe7 ba3d
000003e0: 54ae 3cbe 73a1 133e 54ea 063f 6b6f 34bf
000003f0: ae19 02bd 4fde ab3e 833f 43bd 69a3 033e
-0.07885978 0.1649053 -0.0060912725 -0.09817321 0.15211247 0.0013409189 -0.3765637 -0.045302365
0.4999395 0.03170846 -0.23340109 0.3052355 0.013281441 -0.17540993 -0.18871005 0.11259368
0.008655203 -0.009752146 -0.14443898 0.005977988 0.20889601 -0.47452348 0.012560055 0.08701364
0.09317866 0.25140384 0.09371423 0.082172215 -0.11689725 0.055129025 -0.063282475 0.22583269
0.08432189 -0.17968164 -0.13605753 0.056119673 -0.23337466 0.027691914 0.0055817612 0.16185562
0.22049785 -0.33778054 -0.01176666 -0.03329608 0.030367313 0.3950399 -0.56978893 0.007097654
0.28846762 -0.040010072 -0.35457766 0.53610694 -0.018890508 -0.32877043 -0.08940207 -0.3761342
0.4748155 0.0028703988 -0.23638968 -0.252798 0.10434794 -0.044170164 0.0070317476 -0.19185121
-0.043552347 -0.34494892 0.45103732 -0.01891658 -0.1970947 -0.055510707 -0.19957174 0.2614661
-0.0018220942 -0.038815424 -0.010522668 0.007985582 0.116481856 0.03014538 -0.14053427 0.10015151
0.64053285 -0.6472995 -0.009470521 0.32106245 -0.0229458 -0.23518214 0.45243716 -0.078202374
-0.36673126 -0.13602823 0.45189238 -0.33844456 -0.024946503 0.12797429 0.099963926 -0.23721662
0.118371904 0.05027389 0.19054508 -0.05110722 0.0024469148 -0.093500026 -0.01625084 0.114515364
-0.07141911 -0.3449909 0.23319295 0.05539126 -0.122389935 -0.0676788 -0.1268297 0.23591048
-0.022800941 0.009203452 0.017422814 0.2252472 -0.3089024 -0.011609367 0.17453015 0.13027407
-0.5959491 0.5922014 0.015352712 -0.34353122 -0.031280186 -0.5571088 0.34993523 -0.009992066
-0.07023907 -0.0018578747 -0.17301977 0.087103345 -0.07252132 0.14866273 0.132644 0.21104361
0.23863134 -0.015856564 -0.36743328 0.16669844 0.04480038 -0.13552535 0.041963574 -0.12502809
-0.06432382 -0.27850568 0.5024865 0.015221113 -0.2029561 0.07682632 -0.4318995 0.43564534
0.01925451 0.09766793 0.19133872 -0.10113331 0.2840144 0.026964122 0.056558974 -0.1675009
-0.27955082 0.24629326 0.035306375 0.0903448 0.16007735 -0.20230308 -0.20828135 -0.036229864
0.2727982 0.10246265 -0.27206254 0.4392759 0.046338145 -0.107205495 0.16327538 0.10813433
0.05731143 -0.031458285 -0.13565084 -0.2525697 0.25205082 -0.4585544 -0.014703728 0.27915102
-0.14819789 0.31473705 -0.59944826 -0.009128493 0.34034938 -0.123463556 -0.15208331 0.08693867
-0.05284454 0.15058619 0.11137945 -0.36126578 0.5812568 3.3834964e-05 -0.09245873 0.019678613
-0.2070518 0.4769224 0.028145138 -0.3409934 -0.031183813 -0.06276668 0.070090644 -0.04015614
0.08374479 -0.035026994 0.28283715 -0.37594748 -0.06434125 0.07416298 -0.23054262 0.2541705
-0.33483166 -0.057311736 0.15715128 -0.07235696 -0.069511995 0.32222274 0.009158991 -0.31173855
0.26166677 -0.23487526 0.49177164 -0.010223597 -0.16159526 -0.044704914 0.024592884 0.083054446
-0.047024548 -0.108331434 -0.18991625 0.020503314 -0.005954857 -0.03326417 0.087145746 0.025783334
0.24757771 0.083637476 0.035590872 -0.23548517 -0.05508476 -0.2213288 0.37801993 0.091261975
-0.18425876 0.14417057 0.52701306 -0.7048251 -0.03176277 0.33568045 -0.04766799 0.12855305

fc1.bias f4 [128]
00000000: fffc 7cbd 11aa 40bc 1225 52bd d9f2 66be
00000010: e555 b1be c14c fe3c 9499 053e 807a babe
00000020: 55b2 6cbe b32c 4bbe 2a37 943d bfdf cbbd
00000030: e445 58be 1a88 d93e 8ae5 8f3e 079a d3bd
00000040: 6603 62be 095c 90bd 4144 05be b644 493e
00000050: 5356 8b3d ab61 023e 60e1 913e b905 02bd
00000060: 2f14 163e daf6 6b3e 3c3d 2f3e 288c 52be
00000070: 04f3 b73c 0d39 413e 07ea bd3e 0ca0 bf3e
00000080: f286 ed3d f7a0 863d 10f6 963d 1382 a0be
00000090: 434f e4bd 4d68 fdbd b700 823e 6cdc 033f
000000a0: 25f4 593d ea55 0d3e 84e6 22bc f5a5 e0bd
000000b0: 53fd 1abe ca32 cb3e 5918 a6bd 838e 093e
000000c0: adfd bdbc f702 af3d 09d9 8bbe 29f9 e3bc
000000d0: 6d99 053f ce48 bfbe b3e3 a5be b502 c43d
000000e0: 4655 7e3e 01e5 403e 17e2 f03d 416e 43be
000000f0: 8f18 e5be be22 cdbe c835 9cbe 544f 09bf
00000100: 8812 e33d 2821 bcbe f97e 0cbe 9111 17be
00000110: 1ae4 a7be e241 02be 90bc 453e 3465 0c3e
00000120: ac9e 3bbe 552b 97bd 18df 6c3d 1e7d a53e
00000130: fa1c 7b3d 6081 ddbe ec23 493e a905 24be
00000140: 85c2 d5bd ae3c a73d 6de8 e6be 87e7 a2bd
00000150: f79e c1bd 9491 6b3e e53b e83e 5599 57bd
00000160: c8a9 093e be5e 4e3e 4312 403d b5d6 80bd
00000170: 90e4 143e 20d3 993e b4fa 743e b1ba e2bc
00000180: 1252 ccbd 2075 45be e8c8 303d 6e73 e53c
00000190: ab00 943e a466 c9bd f538 6abe 9c38 ab3d
000001a0: e233 073d a82d c0bd a1ac b5be 0ffa 2dbd
000001b0: 28f1 983e 5c92 903d 9de6 8abe 6878 19be
000001c0: aff7 a13e 79fa 19be 152a 0e3d 327f 9abd
000001d0: 8274 9ebd 9bde 533d 5403 853e 11eb 59bd
000001e0: acfe d53d 20d9 f23d 0a05 f03c 0ae2 153c
000001f0: fc71 9b3a d0b4 4cbc 470d 0cbe dd2e ed3a
-0.061764713 -0.011759297 -0.051304884 -0.22553577 -0.34635845 0.031042458 0.13046867 -0.36421585
-0.23114903 -0.1984127 0.07237084 -0.099547856 -0.21120411 0.4248665 0.28104812 -0.10332113
-0.22071609 -0.07048804 -0.13014318 0.19655117 0.068035744 0.1273257 0.2849226 -0.03174374
0.14656137 0.23043385 0.17113203 -0.20561278 0.022454746 0.1886942 0.3709261 0.37426794
0.115980044 0.0657367 0.073711514 -0.3134924 -0.111479305 -0.123734094 0.2539117 0.5150821
0.05321135 0.13802305 -0.0099426545 -0.10969154 -0.15135698 0.39687186 -0.08110113 0.1343327
-0.023192251 0.085454874 -0.27314022 -0.02782877 0.52187234 -0.37360233 -0.32400283 0.09570829
0.24837217 0.18837358 0.11761873 -0.19085027 -0.447453 -0.4006557 -0.30509782 -0.5363667
0.11087519 -0.36744046 -0.13720311 -0.14752795 -0.32791215 -0.12720445 0.19310212 0.13710481
-0.18322247 -0.07381312 0.057829946 0.3232202 0.06130693 -0.43262768 0.1964261 -0.16017784
-0.10437492 0.081658706 -0.45099202 -0.079543166 -0.09454148 0.23004752 0.45358196 -0.052636463
0.13443673 0.20153329 0.046892416 -0.06290952 0.14540315 0.30043888 0.2392376 -0.027676912
-0.09976591 -0.19282961 0.04316035 0.028009143 0.2890676 -0.0983403 -0.2287329 0.08360407
0.033008464 -0.09383708 -0.35483268 -0.042474803 0.29871488 0.07059166 -0.2712907 -0.14987338
0.3163428 -0.15036954 0.0347081 -0.07543792 -0.07737066 0.051725965 0.25979102 -0.053202692
0.104489654 0.118578196 0.029299278 0.00914813 0.0011859532 -0.012494281 -0.1367694 0.0018095631

fc2.weight f4 [128, 128]
00000000: 9155 963d 4b24 29bd aadc d4bd d38f 95bb
00000010: 07bc 923e ffd0 e1bd bb17 7cbe 9569 b93e
00000020: 7f8a 673d 7408 b7bd f578 e4bd e6d0 2b3e
00000030: 37ec f63d 5923 4ebd eabe b9bd 3ee9 853d
00000040: d907 12bd aae8 a2bd 965f d63c bcce 843c
00000050: c677 f9bd 037c 463d 0d98 4ebe 9061 d03d
00000060: 7662 e2bd c126 ffbd 8f88 533d 5e70 26bc
00000070: 7bab 13bc 5a16 96bc 08e0 0a3d 5dac f6be
00000080: 5dad f03b 658f 023e 245c b23d 0e38 28bd
00000090: 4166 f33c 1aee 883e 5ce2 4cbc ef52 64be
000000a0: f221 71bd 89ec 76bd 6401 973d 870e b03d
000000b0: 4889 2d3e 6986 51be 2c55 feba 6039 8bbc
000000c0: 6c9f 49bc adba 513d f34e e8bd f7e3 a43c
000000d0: 0315 2ebe dcef 093e 5f5a b63e 264d 5fbe
000000e0: 0bff 80bd 0546 f13d 8b33 91bd 4061 c03d
000000f0: 93de 5d3e 5dbf 163e c6c2 5a3e ef3f 193f
00000100: 8c31 ec3c 5299 563e 3e63 863c 9951 9c3c
00000110: db2d 2a3d ed9b 5dbd 44ad fc3c 4fed 6b3e
00000120: 1fd8 f0bd 8af7 df3a 5769 9fbd 3ea8 84bc
00000130: c7a2 adbd ed67 ce3b 4a36 33be 3271 35bd
00000140: 6dc5 653b eb4c afbc 9825 433d 91ad 523c
00000150: 57d5 dcbd b6b5 4e3d 9788 8fbe d2ff 953d
00000160: 207b 3b3e ae68 003e f7ed ebbc b728 0c3e
00000170: 97b9 9cbd 511e c0bd 1f46 0b3d e0ef d5bc
00000180: 3d0f 61bd aee6 873d 59e8 d33d 98f4 e9b9
00000190: 860f 48be cce4 903b 207b 533e e6eb 673e
000001a0: 5915 f93b f26c 053e df82 d53d 4ceb 093e
000001b0: 9567 63bd cfd8 e53d a3d4 073e 00c7 443e
000001c0: b162 cebe 868b 393e 28e3 1cbd b699 183e
000001d0: 56ff 4a3c ebf6 af3d 9d84 e53c c7b8 503d
000001e0: e2a5 0f3d 0e5b 563d f1f2 2e3d 9d79 a0bd
000001f0: c877 aa3d aa54 9dbd 0c8a ebbc 4a75 b03b
00000200: 01f0 1ebe 95a6 b03c 60f3 eabd 1a41 d1bd
00000210: 04d6 be3d cac8 babd a3ed a83d 9ba3 1e3d
00000220: ee7e e73d d1bc 41bc 2507 a9bd 110d 82bc
00000230: a39d cd3b 09b0 b3bd 6211 e13d dbca 0cbd
00000240: 1327 c5be 5dd4 b2bd 3b84 9abd 36ca bebc
00000250: b95c b1bd 5c2d 0d3e fdc3 c0bc 77d5 cc3d
00000260: a6ab c63e b322 ac3e fed1 5b3d 8a81 83be
00000270: d857 803d 5b03 9a3a cfcf 583d 3512 74be
00000280: da25 a8bd 02e4 113c 513d e5bd 932c a6be
00000290: 5915 9d3d c224 953d 28b6 bd3d 237c 843e
000002a0: 2aed ecbd a74f 86bd b9b4 dbbb ecba 91bd
000002b0: bbde aabd f548 40be 3b27 38be 7a45 d43d
000002c0: 88d6 63bc 8f27 533d f10f 2abe dada a13e
000002d0: b407 be3d f034 5ebe ac20 ac3d 0209 e93d
000002e0: 3420 c2bd b660 743c c7ee 833d 8cb3 fe3c
000002f0: 3244 00bd 0187 2fbe 3911 853e 05a6 2e3e
00000300: 4c94 b03d 5d50 173c fec7 01be 27d3 5abd
00000310: 3f1e 21be 9206 afbe 17c2 7a3e 5613 9c3e
00000320: 0def 0dbf ce37 843b 115b 89be ce4d 8e3c
00000330: 8297 44be 2b3a 81be 2ca0 81bd d2e6 05be
00000340: a152 0bbe d02d 6d3d fa7d 743c 0264 0c3c
00000350: 2a5d 8abe a56e 943d ddca 3c3c d56d 4ebf
00000360: fea4 cc3d 5144 bf3e 394d 343e 7592 dd3d
00000370: 141d b13c d5b2 113e 6de6 933e e216 1c3e
00000380: 0b54 803d ead9 3d3d aa3b febd 116d cb3d
00000390: b704 a5bc 22ea 0cbd 92ad e9be b058 ca3d
000003a0: 6dae a23d 76a6 7e3e 6eb0 2abd dc5e b3bd
000003b0: ad38 c3bd c260 86bc 0efa b0bd 00e9 9cbd
000003c0: 391d b6bd ad70 41bd 75e7 0d3b c957 b3bd
000003d0: 4376 323d cb4c 913c 4240 bb3d 046f 21bd
000003e0: 106c abbc 8ad2 c13d c223 32be 4123 32bd
000003f0: 67f0 8dbc 1943 343d 2b31 f43d ec24 a13d
0.07340539 -0.041294377 -0.10393651 -0.0045642643 0.28659078 -0.11026191 -0.24618427 0.36213365
0.056528565 -0.08937159 -0.11155883 0.16778907 0.12056773 -0.05032668 -0.09069617 0.06538628
-0.035652015 -0.079545334 0.026168626 0.01621186 -0.12181048 0.04845811 -0.2017519 0.101748586
-0.11053936 -0.124585636 0.051643904 -0.010158626 -0.009013052 -0.018321205 0.03390506 -0.48178378
0.0073448853 0.12750013 0.08708981 -0.041069083 0.029711844 0.26744157 -0.01250514 -0.22297262
-0.058870263 -0.06028417 0.07373312 0.08596521 0.169469 -0.2046143 -0.0019404045 -0.016995132
-0.012306076 0.05120342 -0.11343183 0.020128233 -0.17000203 0.13470405 0.35615823 -0.21806774
-0.062986456 0.11780933 -0.07089909 0.09393549 0.21666937 0.14721437 0.21363363 0.5986318
0.02883222 0.20956925 0.016404744 0.019081878 0.041547637 -0.05410378 0.030844338 0.23039745
-0.11759972 0.0017087322 -0.07783764 -0.016193505 -0.08478313 0.00629901 -0.17501178 -0.044297405
0.0035060302 -0.021398982 0.047643274 0.012858764 -0.10782879 0.05046626 -0.28033897 0.073241845
0.18308687 0.12539932 -0.028799994 0.13687406 -0.07652586 -0.093807824 0.03400242 -0.026115358
-0.054946173 0.066357955 0.10347051 -0.0004462346 -0.19537172 0.004421806 0.20652437 0.22648582
0.007601422 0.1302984 0.10425352 0.13468665 -0.055518705 0.112229936 0.13264708 0.19216537
-0.4030967 0.1811963 -0.03830257 0.14902386 0.012389978 0.08592018 0.028017337 0.050957467
0.035070308 0.05233293 0.042712156 -0.07835696 0.08323628 -0.07682164 -0.02875235 0.0053850757
-0.15521242 0.021563808 -0.11472201 -0.10217495 0.09318164 -0.09120329 0.082484506 0.038730245
0.11303507 -0.0118248025 -0.08253316 -0.015875371 0.0062748953 -0.087738104 0.10989644 -0.034373146
-0.38506374 -0.08731911 -0.07544752 -0.023289781 -0.086602636 0.13786834 -0.023530954 0.10001653
0.38802832 0.33620223 0.05366706 -0.25684768 0.06266755 0.0011750268 0.052932557 -0.2383507
-0.082103446 0.008904459 -0.11193336 -0.32455882 0.07670087 0.072824016 0.09263259 0.2587596
-0.11568673 -0.06558161 -0.0067048934 -0.07115731 -0.08343264 -0.18777831 -0.17983715 0.10364814
-0.013906129 0.051551398 -0.16607644 0.31612283 0.09278813 -0.21699882 0.08404669 0.11378671
-0.094787985 0.014915636 0.064420275 0.031091474 -0.031315036 -0.17141344 0.25989702 0.17055519
0.086220354 0.009235469 -0.12673947 -0.053424027 -0.15734194 -0.341847 0.24488102 0.30483502
-0.5544289 0.0040349727 -0.2682729 0.017371085 -0.1919842 -0.2523969 -0.063293785 -0.13076332
-0.13605739 0.05790502 0.014922613 0.008568766 -0.27024204 0.07247666 0.011522976 -0.8063634
0.09992407 0.3735681 0.17607583 0.1081895 0.02162031 0.14228375 0.28886738 0.15243104
0.0626603 0.046350397 -0.12413724 0.09932912 -0.02014385 -0.034402974 -0.45640236 0.09880197
0.07943425 0.24868187 -0.041672163 -0.08758327 -0.095322944 -0.01640356 -0.08641444 -0.07661629
-0.088922925 -0.047226597 0.0021652852 -0.08756978 0.043569814 0.017736813 0.091431156 -0.039412513
-0.020925552 0.09463985 -0.17396453 -0.043490652 -0.017326547 0.0440093 0.119234405 0.078683704

fc2.bias f4 [128]
00000000: 266e 50be 2705 0d3e 43cf 39be e109 4dbe
00000010: 8939 ebbe 2284 afbe c31f 10bf c141 09bf
00000020: 39ef 43bf 71b9 ab3d ba86 0dbf 6874 07bf
00000030: bc11 40be 45ad 30bf 4a00 033e 0ce6 e4be
00000040: ba72 0cbf 4115 c4be 2e6e 2fbf 3d4b 5abe
00000050: 4536 0dbe 6832 073d c91a a7be 1d97 3ebc
00000060: dffa f1be 29f2 d2be bb64 3cbf ab19 12bf
00000070: 12a1 23be 969e ffbe adb5 10bf efc4 90be
00000080: f463 113e 5111 c1be e72f 8abe 8c4a 0abf
00000090: 73cb 153c 30af 07bf 8722 5fbe 48ce e1bd
000000a0: dc22 04bf 1dc4 febe 73c6 a4be fdd4 c5be
000000b0: bd42 a5be bf78 a3be 73e2 76be 89a9 46be
000000c0: 85d5 8dbe 0ab0 ccbd 4e01 70bc dcfd dbbe
000000d0: 1755 10be 3b89 3bbf 9fe1 90be 8818 babe
000000e0: 0241 50bf 9ce0 bcbe fc36 03be 9ee6 eebd
000000f0: 1eac 13be 7d41 8ebc 29b8 963d 657e 95bd
00000100: 3cba f1bc 2f7f 1abf dc57 bdbe 63db 723c
00000110: f60a 62be f47d 953d 1137 55be 6665 07be
00000120: b03c 9fbe df25 bbbe 082b 21bf e406 a4be
00000130: 778c a73d cc3a 0abf 2db1 4bbe 3606 85be
00000140: 73a6 16bf ecd1 22be 320c 18be e599 b43c
00000150: e509 f0be a50c d1be e9bd 26be 092d 10be
00000160: 31dc 0abf 4163 b4bc 8d18 66bd 7b24 27be
00000170: 30f3 9c3d 11cf 00bf 3911 97bd 1e3d e1be
00000180: 8e35 dabe 0d98 9fbe c8a7 c9be 2852 9dbe
00000190: e047 96be 790e e7be dea4 abbd bc2c a5be
000001a0: 4c90 69be c2c1 fdbd 93b2 9fbe 1f28 2bbd
000001b0: 0455 813d 5bb5 2bbe 1962 9dbe e4c1 15be
000001c0: 114c 94bd d9f0 dcbe 2bfb 80be b56c ab3d
000001d0: 332f 47bf d2c7 0cbe 2eab 20bf 92d8 93bd
000001e0: cab8 b0be 7d9c c5bd df3f dd3c 2f04 d9be
000001f0: e165 83be 2d69 f9be 4191 1dbe fe18 f2be
-0.20354518 0.13771497 -0.1814547 -0.200233 -0.45942333 -0.34280497 -0.56298465 -0.5361596
-0.765369 0.083849795 -0.552837 -0.52911997 -0.18756765 -0.6901439 0.12793079 -0.44706762
-0.5486256 -0.38297465 -0.68527496 -0.21317764 -0.13790233 0.033007056 -0.32637623 -0.011632708
-0.47261712 -0.4120038 -0.735912 -0.57070416 -0.15979412 -0.4992568 -0.56527215 -0.28275248
0.14198285 -0.37708524 -0.26989672 -0.5402 0.009142744 -0.5300169 -0.21790515 -0.11025673
-0.5161569 -0.49758998 -0.32182655 -0.3863906 -0.3227748 -0.3192806 -0.24109821 -0.1940061
-0.27701965 -0.09994514 -0.014648749 -0.42967117 -0.14094959 -0.7325627 -0.28297135 -0.3634684
-0.81349194 -0.36890113 -0.12813944 -0.116650805 -0.14421126 -0.017365212 0.073593445 -0.072994985
-0.029507749 -0.60350317 -0.36981094 0.014822814 -0.22074494 0.07299414 -0.20821787 -0.13222274
-0.31100988 -0.3655233 -0.62956285 -0.32036507 0.081810884 -0.53995967 -0.19891806 -0.259813
-0.5884773 -0.15900391 -0.14848402 0.022046039 -0.4688255 -0.4082996 -0.16283382 -0.1407968
-0.54242235 -0.022019984 -0.056175757 -0.1632251 0.07663572 -0.5031596 -0.07376332 -0.4399194
-0.42618984 -0.31170693 -0.3938582 -0.30726743 -0.2935171 -0.4512823 -0.08381055 -0.32260692
-0.22808951 -0.12390472 -0.3119093 -0.04178631 0.063150436 -0.167684 -0.30738905 -0.14624745
-0.07241071 -0.43152502 -0.25191626 0.083703436 -0.77806395 -0.137481 -0.627612 -0.07219042
-0.34515983 -0.096489884 0.027007995 -0.42386004 -0.25663665 -0.48713055 -0.15387441 -0.47284693

fc3.weight f4 [128, 128]
00000000: 8407 873d 1160 4abe cd79 99be 6e76 edbd
00000010: f361 1d3f 15e4 053f 0e71 a03e 5cbb b03e
00000020: b2c4 95be fdd7 9ebe 61f4 293e b8b0 82bd
00000030: 6d8a c1bc f90e 6c3e 0af5 a13a 8ecf 34be
00000040: e2f4 c0bd 8967 13bd 77c7 103b 81ea d1bd
00000050: e054 023d eed9 3d3e 57aa e03e 20f5 073e
00000060: 7cf8 6f3e 3829 0f3e 17ed e4bd 1f73 9abd
00000070: b9c0 0cbe 542b 023f da41 45be 081f 7ebe
00000080: 33e1 01bd 0726 423d a70e c43e 4142 46bc
00000090: b294 3f3d 71c4 433d 46ad 9e3e e88b 6dbd
000000a0: 0652 c13e cc07 423e 0395 d03e 1e56 233f
000000b0: 22df e03e 167e 9b3d b9a7 5b3d 294c d5bc
000000c0: 1a35 103d cc23 a9bd 5042 903a 6ea6 ae3d
000000d0: 8756 25be b82a 003e a1b8 6f3e 8162 ce3e
000000e0: e0a4 3a3e 6080 c93e 3918 723e 52d4 1bbe
000000f0: 5c5d 373e 6959 b03c c303 51be 2a6d 86be
00000100: a033 8bbe 55e8 ae3e 3642 9d3d ed4d 0dbf
00000110: a33d 66be 83a9 7ebe 803f 153e 8e53 75bd
00000120: 3750 d13e b58b 1f3e 42fd e33e d5da ae3e
00000130: c054 8ebe 4ece 6dbe e6f5 843c f2a1 c1bd
00000140: 0a04 48be 0e72 b13e 20c8 dabd 1656 c23d
00000150: 8202 803e 3884 e23e 9103 353d 0c3e 1a3c
00000160: 3446 8b3e 19dd 013d eaf7 c23c e4b8 8fbe
00000170: 287d 36bf 6c14 973e 3244 f03b e3ab 9b3d
00000180: 8ac2 933e 6f3a cd3e e04c 2c3e fa34 c13e
00000190: 291f b93e c6ea a33e aef1 a13e 9f05 fc3d
000001a0: bdcc acbe f573 98bc 2216 97be 982e d9bd
000001b0: ebc1 f4be b014 c4bd 476e cabd 9275 313d
000001c0: ca72 f0be 537c 1d3e 842b e73d 925c 943d
000001d0: 9826 aa3e 2ff7 c53c a84d 8c3d 7a1f 7abe
000001e0: e5d1 f73c 4fc6 aebd 4f45 5ebe 56b0 9a3e
000001f0: 2e27 81be 6262 2fbd 5850 80bc f757 0e3e
00000200: 1d09 cbbd 2eb8 11bf 3fbd 1bbe 51e5 e73d
00000210: f7a0 a93e 5b60 0b3f a04c 69bd 43af 38bd
00000220: 041c 65be 5f6b 12bf 609d fc3e 24af 1abe
00000230: 110b 3fbd 4c94 0b3e a231 fcbd e0f9 bcbd
00000240: 30d6 3bbe 0fc5 01be b1cc 9e3e d877 e93c
00000250: ad6a dd3c 7f60 b9bb e254 fd3e 3caf 94bd
00000260: 4951 933e 4046 5e3e c6e3 2dbe ca32 343e
00000270: e2d3 bcbe 40bb 0a3f f81f 30be 7d0d 0fbe
00000280: d347 6ebe cc00 943e 1755 953e 7737 113e
00000290: 2e54 6bbd b74f 42be 7f77 e63e d739 463e
000002a0: 62a7 923d e8ce 00be 7c98 a03e 3eca 233f
000002b0: 5f59 d33e 3f71 c1be 04db dbbd 8825 f33e
000002c0: 91cf bc3e 06d2 12be eef9 3a3e 37b2 153e
000002d0: 8cae dc3d f742 673d bfc4 ac3c 29a7 ef3e
000002e0: cb40 223e 45d2 c93e 8f2a e2be 9bf5 d3bd
000002f0: 21c8 7a3d a3b1 34be 4c85 a7bc 50a1 08bf
00000300: e1bc 06bf d4e5 ac3e 4d40 f23d c44f c6be
00000310: 5760 4e3e e4a0 23be bc86 853e 101a 92bc
00000320: b5c6 f93e d173 383e a5b4 393e 6e7b 073f
00000330: f068 19bf 7f04 a3be b084 673c ab66 9fbd
00000340: 75e6 60be 6fd9 173e 8a52 b73d 0e4f 56bd
00000350: 2cfb d53c 2845 cf3d 4fbb b7bc 7c84 46be
00000360: 6c79 443e 45b2 8ebe 81d4 dd3c a6cc d3bd
00000370: cd12 13bf 6e26 a03c d162 30be c3ab 23bd
00000380: dcab 8a3e 285a e13c 4b52 043e 6b14 9c3e
00000390: 738e 013e 7ff6 f23e e673 7d3d e2f7 1c3e
000003a0: b42b f5bd 2372 f7bb 07aa 74be 190a d2bd
000003b0: fe7b c9be 2f90 203e 9435 5cbe e6a3 3d3e
000003c0: 3fec 06bf 32ee ce3e 02f7 4fbe 2fb0 40bd
000003d0: dbe6 1f3e 32c5 62be 755a d23d 26a9 4bbe
000003e0: cec2 393e 09b7 c8bd 72c1 4ebe 9aba d23e
000003f0: b05a 403e b176 27bd 1114 723d 217b 373e
0.0659323 -0.19763209 -0.2997574 -0.11594854 0.61477584 0.5230115 0.31336254 0.34517944
-0.2925163 -0.3102416 0.1659713 -0.06381363 -0.023625577 0.23052587 0.0012356353 -0.17657301
-0.09421708 -0.03598741 0.0022091547 -0.10249806 0.031819224 0.18540165 0.4387996 0.13277102
0.23434633 0.13980567 -0.11178034 -0.07541489 -0.13745393 0.50847363 -0.19263402 -0.24816525
-0.031708907 0.047399547 0.3829243 -0.012100757 0.046772666 0.047794763 0.30991572 -0.057994753
0.3775789 0.18948287 0.40738687 0.6380328 0.43920237 0.07592408 0.05362675 -0.026037293
0.03520689 -0.08258781 0.0011006091 0.08527838 -0.16146289 0.12516296 0.23410274 0.40309528
0.18226957 0.39355755 0.23642053 -0.15217713 0.17906708 0.02152701 -0.20411591 -0.2625516
-0.27187824 0.3416163 0.07678644 -0.5519703 -0.2248445 -0.24869351 0.14575005 -0.059894137
0.40881512 0.15580638 0.44529158 0.3415133 -0.27799034 -0.2322323 0.016230535 -0.09454717
-0.19532791 0.3465733 -0.10682702 0.09489076 0.25001913 0.442415 0.044192854 0.009414207
0.27201998 0.031704996 0.023799855 -0.28070748 -0.71284723 0.29507768 0.0073323483 0.07601144
0.2885936 0.40083644 0.168262 0.3773573 0.36156586 0.32015055 0.316297 0.1230576
-0.33749953 -0.01860998 -0.29509073 -0.1060459 -0.47804198 -0.09574258 -0.09884315 0.043325014
-0.46962577 0.15379457 0.11287597 0.07244219 0.3323257 0.024165718 0.06850749 -0.2442607
0.030251453 -0.08533918 -0.21706127 0.3021266 -0.25225204 -0.042818435 -0.01566331 0.13900743
-0.099138476 -0.5692166 -0.1520891 0.113230355 0.3313062 0.544439 -0.05695784 -0.045089018
-0.22373968 -0.57195085 0.49338818 -0.15105873 -0.046641413 0.1363079 -0.12314154 -0.092273474
-0.18343425 -0.12672828 0.31015542 0.028499529 0.027028406 -0.005657255 0.49478823 -0.07259986
0.28772953 0.21706486 -0.1698142 0.175975 -0.36880404 0.5419197 -0.17199695 -0.13969989
-0.23269586 0.28906858 0.2916648 0.14181314 -0.057453327 -0.18975721 0.45013043 0.19358002
0.07160832 -0.12578928 0.31366336 0.6398047 0.41279122 -0.37781712 -0.10735133 0.47489572
0.3687711 -0.1433793 0.18259403 0.14618765 0.1077548 0.056460347 0.02108991 0.4680722
0.15845029 0.39418235 -0.44173095 -0.1034958 0.061226014 -0.17645888 -0.020449303 -0.53371143
-0.52631956 0.33769095 0.11828671 -0.3873273 0.20153938 -0.15979344 0.26079357 -0.017834693
0.48784414 0.1801293 0.18135317 0.52922714 -0.59925747 -0.31839368 0.014130756 -0.07783254
-0.21962912 0.14829038 0.0895129 -0.052321486 0.026120745 0.101206124 -0.022428183 -0.19386476
0.19186944 -0.27870384 0.027078869 -0.10341768 -0.5745056 0.019549575 -0.17225195 -0.039958727
0.27084243 0.02750881 0.12922017 0.30484328 0.12651996 0.47453687 0.061878107 0.15328935
-0.11971226 -0.007551448 -0.23892985 -0.10255832 -0.3935241 0.15680002 -0.21504813 0.18519554
-0.5270423 0.40416104 -0.2030907 -0.04704302 0.15615408 -0.22145537 0.102711596 -0.19888744
0.18140718 -0.09800536 -0.20190981 0.4115799 0.18784595 -0.040884677 0.059101168 0.17918064

fc3.bias f4 [128]
00000000: 22c0 3cbf f5e7 67bf c915 ca3e 410a d93e
00000010: 5280 93be c670 93bf fec9 cebe aea6 12be
00000020: 2116 1cbf 3387 a43e 22ee 01bf 0e95 93be
00000030: 344a b4be bb2e 8a3e 9ecb d8be d8e1 07bf
00000040: 8cdd 25be bb6f 8dbe a9c4 e33e 6435 a33e
00000050: 3c35 c03e a05b 4fbe ba1d c73e 7c6f bc3e
00000060: bfdd 80be e984 8cbe 0da6 4ebe d7e0 eabe
00000070: 384b b13e 8229 70bf 82d3 edbe 5748 cbbe
00000080: 727c cebe 696f 11bf cff1 cd3e d33c d4be
00000090: c23e 3ebf 720e 9fbe 7ae0 19bf c10a 2fbf
000000a0: 02b6 4cbf c753 723e f30e 81bf 1414 00bf
000000b0: b553 6cbe 45f4 ca3e f99c 7ebf 903e 2fbf
000000c0: dd4e ddbe 6911 59bf e5eb 4fbf 016c d9be
000000d0: 97e9 7bbf bfc2 aa3e 097e c03e 8efb b0be
000000e0: 9b2e 47be 3af4 e1be 849d 97be f260 28bf
000000f0: 083d c93e 2171 e73e e2c2 95be 2f28 3dbf
00000100: 3a11 d2be 2d6c b63a 45ab 48be 98ea a53e
00000110: c46d f23e 44c2 01bf b1be dcbe af76 89be
00000120: 139d f53d 8fca 153e 4f59 16bf e1a5 82be
00000130: 8468 ac3e c65e 843e 8e96 bb3e f628 a1be
00000140: 4ae1 003f 4300 c63e 3223 aabe 7065 d4be
00000150: 22cf 89be c93c b5be efe7 ce3e d2ff 93be
00000160: 9bb9 1ebf bc5f 65bf 4347 02bf a48e 18bf
00000170: 0960 efbd c1da b7be 2dd2 b93e 625f 833e
00000180: c7ae 19be fd18 023e ef71 e83e 015b 1abf
00000190: 58b2 893e 8824 8ebe 3b83 a93e 6ebe b8be
000001a0: 69c0 c5be 66da 0dbe e84b 92be 454f 2ebe
000001b0: b570 f4be 6e90 d53e 8617 643e a3b7 4bbe
000001c0: 0089 cebe 1837 2abe 3a4b 9ebe a05e 4ebf
000001d0: aca0 74be cc1e 8fbe 1e42 f53e 65f5 4bbf
000001e0: f273 8bbf b393 b3be d299 d73e ead4 e9be
000001f0: 31db da3e 1e5a 5ebe 4177 c13e 3441 d0be
-0.7373067 -0.90588313 0.39469746 0.42390636 -0.28808838 -1.1518791 -0.40388483 -0.14321396
-0.60971266 0.321344 -0.50753987 -0.28824657 -0.35212862 0.26988778 -0.42342848 -0.53078985
-0.16197795 -0.27624306 0.44485977 0.3187667 0.37540615 -0.20249796 0.38889867 0.36803806
-0.2516918 -0.27445152 -0.20180531 -0.45874664 0.346277 -0.93813336 -0.4645043 -0.39703628
-0.4032932 -0.56810623 0.40223548 -0.41452655 -0.7431451 -0.31065708 -0.6010815 -0.68375784
-0.7996522 0.23664771 -1.0082687 -0.50030637 -0.23078807 0.39639488 -0.9945827 -0.6845484
-0.4322423 -0.8479219 -0.8121932 -0.42465213 -0.98403305 0.33351704 0.37596157 -0.3456692
-0.19451372 -0.44131643 -0.29612362 -0.65772927 0.39304376 0.45203498 -0.29250246 -0.7388944
-0.41028768 0.0013917737 -0.19596584 0.32405543 0.4734937 -0.5068705 -0.43114236 -0.2684836
0.1199285 0.14628051 -0.58730024 -0.2551718 0.3367349 0.25853556 0.36638302 -0.31476563
0.50343764 0.38672075 -0.33229977 -0.4148364 -0.26915842 -0.35397938 0.40411326 -0.28906113
-0.6200196 -0.89599204 -0.50889987 -0.5959265 -0.11688239 -0.35909083 0.36293164 0.2565871
-0.15008079 0.12704845 0.45399424 -0.6029511 0.26893878 -0.27762246 0.33107933 -0.36082786
-0.3862336 -0.13852844 -0.28573537 -0.17022426 -0.4774224 0.41711754 0.22274598 -0.1989427
-0.40338898 -0.16622579 -0.30916768 -0.80613136 -0.23889416 -0.27953184 0.47902006 -0.7967132
-1.0894759 -0.35073623 0.42109543 -0.45670253 0.42745355 -0.21714064 0.37786296 -0.40674746

final.weight f4 [1, 128]
00000000: df83 63be 21dc 63be 8517 853d 6aac 193d
00000010: a231 48be c0b9 e2bc c358 18be a0f6 97bd
00000020: 15ed 2dbe 422a 163d 20b3 04be 8036 5cbd
00000030: f77e 42bd afca 073d 3acb 11be 672c 2abe
00000040: 8baa 68bd c7c2 92bd 2140 143d 5c6e 023d
00000050: 1a13 423d 4360 f8bc 6fbf 7e3d a4d1 933d
00000060: 2d29 c0bd a1bd 22bd 2807 1ebd 689d 3dbe
00000070: 2b42 363d be68 94be 1638 1bbe 3ac5 fcbd
00000080: 46ad 36be d707 71be c015 283d 8231 fabd
00000090: 8328 28be 8d48 0cbe 7e88 1dbe 2633 51be
000000a0: 5807 71be 9fda 133d 21b1 16be fe0e 31be
000000b0: 7ad7 fbbd 59d9 d13c 4382 84be 566b 70be
000000c0: 5e5d 2bbd 88f8 1ebe d445 41be 6163 4ebe
000000d0: 81c1 12be fb2e 573d 77aa e33c 7d46 26be
000000e0: 3b39 39bd c1bb 3abe abc9 40be 908f 3fbe
000000f0: 4988 193d 459f 333d 77a4 e8bd e040 41be
00000100: d8ce 37be 6655 9bbd 113e 03bd 9c49 4e3d
00000110: 04d7 673d 20bb 5bbe e037 37be 6235 fabd
00000120: da9f f33b 627e 543c 2e9e 3ebe 993b 66bd
00000130: 4c56 c63c d520 8a3d b5e0 0f3d 31e0 2cbe
00000140: c299 2b3d a112 293d 22c6 4dbd 6c1d 07be
00000150: 0145 d4bd 6d03 02be 5826 2e3d ce25 7fbd
00000160: 81b9 2bbe c23c 4fbe da3c b3bd 45c6 afbd
00000170: ff63 29bd 6c8c 0ebd 2f37 e73c 83b1 233d
00000180: 4d85 e2bc e592 413d f2ff 563d 10bb 25be
00000190: be18 363d 3e88 2dbd 781d 3a3d 883f 81bd
000001a0: 6f84 2bbe 8515 24bd f593 8ebd c571 2ebe
000001b0: f25b 26be 4d68 3b3d 05c1 583d f81e 21be
000001c0: e1b0 e2bd 882a f0bc 0dc2 29be 1c4c 91be
000001d0: 2f10 a7bd ca46 10be fc5d 173d 3df9 bdbd
000001e0: a1fc a6be dd81 bfbd 55e9 453d 155a a2bd
000001f0: 0e83 3a3d 8185 c2bc a844 8d3d 73a1 843c
-0.22218274 -0.22251941 0.064986266 0.037517942 -0.19550183 -0.027676463 -0.1487761 -0.07420087
-0.16984971 0.036661394 -0.12958956 -0.053762913 -0.047484364 0.03315228 -0.14237681 -0.166185
-0.056803267 -0.07166057 0.03619397 0.03184353 0.047381498 -0.030319339 0.062194284 0.0721772
-0.09382854 -0.039731625 -0.038581043 -0.18517077 0.044496696 -0.28986162 -0.15158114 -0.123423055
-0.17839536 -0.23538147 0.041036367 -0.12216474 -0.16421704 -0.13699551 -0.15384099 -0.20429668
-0.23537958 0.036097165 -0.14716007 -0.17290875 -0.12296958 0.025616335 -0.25880632 -0.23478445
-0.04183709 -0.15524495 -0.18874294 -0.20155098 -0.14331628 0.05253504 0.027791245 -0.16237827
-0.045220595 -0.18235685 -0.1882693 -0.18707108 0.037483487 0.043853063 -0.11359494 -0.18872404
-0.17949998 -0.07584648 -0.032041613 0.050363168 0.05660154 -0.21458101 -0.17892408 -0.12217213
0.0074348273 0.012969585 -0.18615028 -0.05620918 0.024211071 0.067445435 0.035126407 -0.16882397
0.04189468 0.04127753 -0.050237782 -0.13194817 -0.10364724 -0.1269662 0.042517036 -0.062291913
-0.16769983 -0.20238021 -0.08751841 -0.08582739 -0.04135513 -0.034801885 0.028224556 0.03996421
-0.027651453 0.04725923 0.052490182 -0.1618464 0.04445719 -0.04236626 0.04543826 -0.06310946
-0.16749738 -0.040059585 -0.06961814 -0.17035587 -0.16246012 0.045753766 0.052918453 -0.1573447
-0.11068893 -0.029317155 -0.16577931 -0.2837838 -0.08157384 -0.14089504 0.036954865 -0.09276054
-0.32614616 -0.09350941 0.048318226 -0.07927338 0.04553514 -0.0237453 0.06897861 0.016190266
