TrainingLogs/Inverse/Epoch_20.pt (torch, 138511 bytes, 7 tensors)

fc1.weight f4 [128, 5]
000000 a3 9d 05 3e a1 cd a4 3e df e9 66 3e ba 92 72 be
       0.13048415 0.32188132 0.22550152 -0.23688784
000010 dd 93 a2 3c 1d 57 fc bd 8e 4c 8e 3e 0b 8c ee ba
       0.019845897 -0.12321303 0.27792782 -0.0018199695
000020 ec 17 e9 bd 8e de e3 bc 62 53 24 3e 23 ed d0 be
       -0.11381516 -0.027816083 0.16047433 -0.4080592
000030 2e d4 63 3e 1b 90 d4 3d 99 8b 95 be ca de 51 bd
       0.22248909 0.103790484 -0.29208067 -0.05123786
000040 c7 e7 81 be 4c e8 ca bd 5f 32 d0 3e 1a 0b 98 bd
       -0.25372145 -0.09907588 0.4066343 -0.074239925
000050 21 17 02 3f 41 cf c4 bb aa 2d a8 3d 56 eb 1b 3e
       0.5081654 -0.006006152 0.08211835 0.15226492
000060 94 d4 43 3e e3 bd 5a 3e e6 36 b5 bb ab 4c 35 be
       0.19124061 0.21361499 -0.005530226 -0.17705028
000070 37 cc 81 3e 98 d3 0f 3e 59 79 a3 3e 1b ce 16 be
       0.25351116 0.1404556 0.31928518 -0.1472706
000080 20 03 53 bd 9f ec e9 3c 03 17 eb 3c 7f 46 b2 be
       -0.051516652 0.028555213 0.028697496 -0.3481941
000090 a1 d7 cf 3e c5 ef 07 be ff 1b 55 3e 71 e8 a0 3d
       0.405942 -0.13275059 0.20811461 0.07856835
0000a0 97 66 d4 3e 92 44 b7 be 53 6c 52 be 1e 6b 45 3e
       0.4148452 -0.35794502 -0.20549135 0.19279143
0000b0 71 00 26 3c 40 85 a1 3e 65 da 0b bf ca aa f3 ba
       0.010131941 0.31546974 -0.5463012 -0.0018590328
0000c0 35 2c 83 3e c2 f1 e2 bc 5d c4 da 3e 33 66 b7 be
       0.25619665 -0.02770317 0.42727938 -0.3582016
0000d0 0d 03 31 bc a4 90 a6 3d dd 1b a1 bc 7e d9 9c bd
       -0.01080395 0.08133057 -0.019666607 -0.07658671
0000e0 47 5a 77 3e 33 fc 54 3d 6c e6 51 be bc 8a 8e bd
       0.24155532 0.05199833 -0.20498055 -0.06960055
0000f0 bc 9c 67 be 21 da 8e 3d f0 85 3f be 83 2a ce bb
       -0.22618383 0.069751985 -0.18703437 -0.006291689
000100 30 6f 85 3e 10 5c 1d 3e e4 cb d6 bd 7f 4d 3b 3e
       0.26061392 0.1536715 -0.10488108 0.18291281
000110 0c 46 69 3e da db 85 bd ea 12 08 3e 84 60 fb 3c
       0.22780627 -0.06536074 0.13288465 0.03068567
000120 9c 1e 10 be 96 d6 3b be 8f d6 89 3e 3d a7 51 3e
       -0.14074177 -0.18343577 0.26921508 0.20473953
000130 59 56 81 be 9b b6 4a 3e d1 33 6f 3d 5e 0a 8f be
       -0.2526119 0.19796221 0.058399025 -0.27937597
000140 e0 b0 c4 3e 29 16 10 bf 68 fd 9f bc 97 03 12 3e
       0.38416195 -0.56283814 -0.019530013 0.14259182
000150 6b 19 88 bd 84 80 65 be fe e4 07 3f b0 a4 c1 3b
       -0.06645473 -0.22412306 0.5308379 0.005909525
000160 fd b4 d5 be 62 6a a5 3c fb 6c 28 3d 4e f1 97 be
       -0.41739646 0.020192329 0.041119557 -0.29676288
000170 de 0b 58 bd 71 3f b3 3e 94 a7 ce bd af 5a 95 3e
       -0.052745692 0.3500934 -0.10090557 0.2917075
000180 25 c2 b9 be ff a6 55 3e b2 14 5d be bb e1 40 be
       -0.36280933 0.20864485 -0.21589926 -0.1883611
000190 5c 9c 7d be ca 64 81 bd f5 f6 69 be 8c 1c c3 3d
       -0.24766678 -0.06318052 -0.22848113 0.09526929
0001a0 50 d0 6b 3e ae 52 df 3e 21 ab 84 be 7e fc 11 be
       0.23028684 0.43617767 -0.2591181 -0.14256474
0001b0 62 6c 1f 3e 2a e6 f4 3b f3 a3 56 3e 8e 83 34 be
       0.15568689 0.0074737268 0.20960979 -0.17628309
0001c0 e0 93 6a be 16 7c 5e 3e 83 7d df 3d 90 d5 d7 3e
       -0.22907972 0.21727023 0.10912611 0.42155123
0001d0 b8 af 8a be a7 56 82 3c a9 3d a0 bd 9b 95 e5 3c
       -0.27087188 0.01591046 -0.07824261 0.028025439
0001e0 27 c7 96 be 62 71 b8 3e f6 45 a0 3b 10 0d 61 be
       -0.29448816 0.36024004 0.0048911525 -0.21977639
0001f0 8b 80 c8 bc 96 d9 06 3d be b5 12 3d 42 2e 3b 3e
       -0.024475357 0.03292235 0.035817854 0.18279365
000200 29 63 49 3c 54 fb 34 be be 76 65 be 84 ab ef 3e
       0.012291708 -0.17673999 -0.22408578 0.46810544
000210 94 49 e0 bb 2e 09 2e be 0b cc 56 3c a6 06 4a be
       -0.0068447087 -0.1699569 0.013110171 -0.19729099
000220 0d a5 e5 3e 8a 89 78 3c e6 c7 c3 be 41 0a 7d 3c
       0.44852486 0.015169511 -0.38238448 0.015444339
000230 95 23 8a 3d 62 ed b0 3e af 48 3d 3e aa ca 60 be
       0.06745068 0.3455611 0.18484758 -0.2195231
000240 e0 32 45 be 2c e2 9e 3e bc f1 55 be 4d ed 3c 3e
       -0.19257689 0.3103193 -0.20892996 0.18449898
000250 8c e5 2c bd 4e 40 9b bd 04 52 82 be b5 60 cb 3e
       -0.0422111 -0.075806245 -0.25453198 0.3972222
000260 58 f9 83 ba 7b cd c8 bd b9 47 87 3c ad 39 f7 3e
       -0.0010068817 -0.09804817 0.016513692 0.4828619
000270 76 3a b7 be 90 45 f9 3c ac 41 ce 3e 1e a9 b6 bd
       -0.3578679 0.030428678 0.4028448 -0.08918975
000280 7f 21 64 be 6e ca 6b 3e d5 1b d9 bd 8d 56 24 3e
       -0.22278403 0.2302644 -0.10601012 0.16048642
000290 13 5c ce 3d e6 63 f5 be 90 4c 9b 3e 56 8f 7f be
       0.100761555 -0.4792778 0.3033185 -0.24957022
0002a0 94 a6 e6 3d 76 45 44 be 39 29 68 3e 4f 04 bc bd
       0.11262241 -0.19167122 0.22671975 -0.09180509
0002b0 54 89 78 be 3f 7e b3 3e 3c d8 54 3e a0 9b a2 be
       -0.24271137 0.35057256 0.20785612 -0.31759357
0002c0 07 ca a7 be dc 7a f3 3d 2c b7 ce 3e 0d cb 44 be
       -0.32771322 0.11888668 0.40374124 -0.19218083
0002d0 66 88 42 be d8 23 0c 3e ea 90 18 3e 6a 18 7c bd
       -0.18997344 0.13685548 0.1489903 -0.06154672
0002e0 ad d7 82 be 9d ee 30 3e 98 34 88 3c f6 a4 16 be
       -0.25555173 0.17278524 0.016626641 -0.14711365
0002f0 f5 52 fe 3d 42 e3 7c be d6 26 69 3e 1d c9 ce be
       0.124181665 -0.24696067 0.22768721 -0.40387812
000300 4b 42 11 be 8c 3d 9c 3e 9f 53 fa bd 10 e1 09 3e
       -0.14185445 0.30515707 -0.12222981 0.13464761
000310 33 2c 90 3e 6f 6e 4e 3e 23 47 c0 be b6 f3 32 3e
       0.2815872 0.20159315 -0.37554273 0.17475781
000320 8f 66 a9 3e 5b 40 9d be 15 2a 2e 3b 69 c4 c8 bd
       0.33086058 -0.30713162 0.0026575376 -0.09803087
000330 99 c5 fa bc a2 8e 86 3e b7 8c 6e 39 d1 2c ed 3d
       -0.0306118 0.26280695 0.00022749869 0.11580814
000340 25 63 c0 be eb 13 89 bd d1 69 2d 3e 1a c6 e0 3e
       -0.3757564 -0.06693252 0.16934897 0.4390114
000350 b4 6b 79 3e 3a 23 71 be e9 af 9e be 88 af 0e 3a
       0.24357492 -0.23548594 -0.30993584 0.00054430263
000360 95 f2 6c 3e 65 3d 85 3e 02 9f c8 3d 84 00 6b 3e
       0.23139413 0.26023403 0.09795953 0.22949415
000370 3c 79 a6 3d 04 9f d7 3e 52 76 cb bc 19 b8 0f bf
       0.08128592 0.42113507 -0.024836693 -0.56140286
000380 c9 d8 48 bc ef 62 86 3e 83 b7 8f 3e 45 f5 bc 3c
       -0.012258717 0.26247355 0.28069696 0.023066172
000390 c7 32 03 be c9 e2 40 be a3 80 2b bd 05 bf 88 be
       -0.12812339 -0.18836512 -0.041870724 -0.26708236
0003a0 dc 46 65 bc 94 53 ed 3e 0a c2 c0 3d 2a c3 94 be
       -0.013993945 0.46352828 0.0941201 -0.29055148
0003b0 16 c7 c6 3e 34 72 e4 3b ef 5d 22 be d1 e8 c2 3c
       0.38823766 0.006971622 -0.15856145 0.023792656
0003c0 55 e0 d0 be c9 6d 1f 3d 35 31 88 3e 29 d9 49 3b
       -0.40796152 0.03892306 0.26600042 0.0030799604
0003d0 86 42 c0 bd c5 01 86 be 65 71 a7 3c 77 b8 37 3d
       -0.09387688 -0.26173225 0.020439813 0.044853654
0003e0 56 93 53 3c dc 26 f1 bd 05 f7 0e bd 6a 89 bb 3e
       0.012913546 -0.1177499 -0.034903545 0.36628276
0003f0 b2 7f bb bc a0 7a db be c1 63 ae bc 2d 8e 79 3e
       -0.022888038 -0.42866993 -0.0212878 0.24370642

fc1.bias f4 [128]
000000 98 a3 81 3d 79 db 46 3e 10 0c 90 3e 95 ed 61 3e
       0.06330031 0.1941966 0.28134203 0.22063287
000010 1c e4 bd 3e bd 65 fc 3d 0d b1 dc bd 7d e4 88 3d
       0.37088096 0.123240925 -0.10775957 0.06684206
000020 aa 4b 87 be 82 a4 8d be fb 23 73 be d8 d8 54 bd
       -0.26424915 -0.27664572 -0.23744194 -0.05196461
000030 e8 7c 51 3e 66 1c 8c 3d 72 c6 5d be 72 d4 03 3e
       0.20457804 0.06841354 -0.21657732 0.1287401
000040 e2 dd d5 be 20 bc c9 3b 55 9c 23 3e 88 de 1a 3e
       -0.41770846 0.0061564595 0.15977605 0.15123951
000050 0f 96 2f 3e 1c c4 a8 bd 3f 6b 83 bd c4 a0 c8 be
       0.17147087 -0.0824053 -0.0641694 -0.39185154
000060 7c 5e a0 3d f4 90 00 be 6c fa a6 3e 8e d9 3f bd
       0.078305215 -0.12555295 0.32612932 -0.046838336
000070 f4 e0 8f 3d 2c f6 3b bd 55 bc a9 3e 9f ee 8d 3e
       0.07025328 -0.045889065 0.33151498 0.27721116
000080 a9 97 3b 3e f7 4b 65 3d 63 56 0e 3e 17 0d 91 bd
       0.18319573 0.05598065 0.13900141 -0.07082575
000090 f5 d6 3e bb 63 88 34 3e d8 35 91 bb 43 ff ce 3d
       -0.0029119824 0.17630152 -0.0044314675 0.10107281
0000a0 d3 0a f5 be f8 1c c0 be d7 fb 25 3e a3 a8 37 be
       -0.4785982 -0.375221 0.1620935 -0.17935424
0000b0 c5 cd 85 be bd 4a 08 3e 9e bf b4 3e 90 4e 42 3e
       -0.26133552 0.1330976 0.35302442 0.18975282
0000c0 69 4d ab 3d 4f 89 50 3e a8 31 33 be 97 df 15 bf
       0.08364374 0.20364879 -0.17499411 -0.58544296
0000d0 d2 c2 86 be 5c 31 5a bd a0 4e b0 3d c5 14 0e 3f
       -0.2632051 -0.05326973 0.086087465 0.5550044
0000e0 b7 15 97 be 26 8b df 3e fe 95 92 3e 4f 53 c8 3e
       -0.29508755 0.4366085 0.2863006 0.3912606
0000f0 c5 e3 de bd 96 99 6d 3e 7e a0 35 be 07 02 41 3e
       -0.10883287 0.2320312 -0.17737004 0.1884843
000100 a2 df 4f 3d 69 f7 b7 be 93 d4 4c be 6b ff c4 be
       0.050750382 -0.35930946 -0.20002966 -0.38476118
000110 56 b9 2d be 66 fe 87 be 4a 7a a4 3e a3 6b 5f 3d
       -0.16965231 -0.26561278 0.3212455 0.05454601
000120 59 86 d1 bd b0 f6 21 3e 23 b8 f6 be bf 84 9f 3e
       -0.10230703 0.1581676 -0.4818736 0.31155965
000130 d4 45 4d be b9 29 bd bd 61 55 88 3e 8c 5f fd bd
       -0.20046169 -0.092364736 0.2662764 -0.1237174
000140 16 bb 30 3e 08 d1 43 3d be 8b 93 be 45 ca bb 3c
       0.17258868 0.04780677 -0.28817552 0.022923598
000150 0d 47 d5 bd 5b 81 92 be ae d9 0c 3e a7 c2 64 3e
       -0.104139425 -0.28614315 0.13754913 0.22339879
000160 cb 82 5a be 61 ea 68 be 85 8d 24 be 1f b7 6b be
       -0.21338956 -0.22745658 -0.1606961 -0.23019074
000170 d3 e5 fb be 1f ea ed 3d 31 b1 3c 3e 46 b1 80 be
       -0.4919878 0.11616921 0.18426968 -0.2513525
000180 ff d7 9f bd 07 e2 32 3e 70 5f b7 be 16 ad 11 3e
       -0.0780487 0.17469035 -0.35815 0.14226183
000190 93 15 e0 3e c3 56 a0 be 73 59 99 bd a5 6f 96 be
       0.4376646 -0.31316194 -0.07487764 -0.29382053
0001a0 b8 26 e1 be d4 04 47 3e 4c 77 9e 3d ba 51 bb 3e
       -0.43974853 0.19435436 0.07737598 0.3658579
0001b0 c5 36 88 be cd e3 8c 3e 9e 03 95 3e 9e 99 8d 3d
       -0.26604286 0.27517548 0.29104322 0.06914066
0001c0 db 34 61 3e cd 83 64 be cd 04 64 3d 22 15 af 3e
       0.21992819 -0.22315903 0.05566864 0.3419581
0001d0 99 ab a8 be a0 5d 4c bd db 19 26 3e 3f 69 9a 3e
       -0.3294342 -0.049893975 0.162208 0.3015842
0001e0 13 cf 83 3e 1f cb 82 3d 6e b4 be 3d a5 03 c9 3d
       0.25743923 0.063863985 0.09311758 0.09815148
0001f0 63 38 d9 bc ce 36 04 bf 6a cf 93 be 5f c1 63 3e
       -0.026516145 -0.51646125 -0.28869182 0.22241734

fc2.weight f4 [128, 128]
000000 d6 f7 6d bc 1b e9 3a be 7a 45 1d 3d ac 10 39 3d
       -0.014524421 -0.18252985 0.038396336 0.045181915
000010 c7 61 f2 bb 2a eb 56 3d 96 f3 88 bd 0f 9c a6 bc
       -0.00739691 0.052470364 -0.06687085 -0.020338086
000020 f1 95 1d bc 8f f5 b5 3d 9d c0 6f bd da 92 16 3d
       -0.009618268 0.08884727 -0.0585333 0.036761142
000030 dc e4 44 3c e8 96 fc 3b 74 19 85 3d 9d b8 cf bd
       0.012017455 0.007708419 0.064989954 -0.10142634
000040 0e 44 db 3d 3b 3a a0 bd e5 0f 2d 3d 83 6f 58 3c
       0.1070634 -0.078236066 0.042251486 0.01321018
000050 9c 5b 90 bc 28 69 13 3d f5 93 7b 3c 3f 51 6b 3c
       -0.017621808 0.035988957 0.0153551 0.014362632
000060 f8 65 cb bd fa 4d 00 3d 7c d9 1e be 19 17 ed 3c
       -0.09931558 0.031324364 -0.15512651 0.028941678
000070 e7 0a 86 bc 60 50 8c 3c 84 2c 09 be e1 05 43 3d
       -0.01636262 0.01712817 -0.13395888 0.04761303
000080 4e 0d 4a bd 4d 28 55 bd 0f 2d d2 3c 0a b9 1a bd
       -0.049329095 -0.052040387 0.025656251 -0.037774123
000090 00 f2 a5 3d ec cd 64 bc cf b9 49 bd 98 ff 87 3d
       0.081027985 -0.013965111 -0.049249467 0.066405475
0000a0 35 17 0f 3e ad 90 06 bd c2 d1 81 bb 27 5d 85 bd
       0.13973697 -0.032852817 -0.0039617727 -0.06511908
0000b0 df fb df bd e6 43 5b 3d d6 95 a6 bd 60 6e d5 bd
       -0.109367125 0.05353155 -0.08134048 -0.10421443
0000c0 00 e5 9e bd 41 ce d9 bc cd 23 84 3d 05 11 52 bc
       -0.07758522 -0.026587607 0.06452141 -0.012821441
0000d0 9e a8 2e 3d 4f e1 a5 3d eb d8 ad 3d 6d 01 bb bd
       0.042641275 0.08099615 0.084886394 -0.09131131
0000e0 b9 f3 2a bd 39 e6 94 3c dd 78 e2 bc e2 0a d5 bd
       -0.04173634 0.018176185 -0.027645523 -0.10402466
0000f0 1f 81 39 bd eb 4e 11 bd 2d cc 61 3e e3 5c ce 3d
       -0.045289155 -0.035475653 0.22050543 0.100763105
000100 39 b4 f9 bb 0d ce c6 3a 8f 4a 76 3d 25 8d fa 3d
       -0.007620361 0.0015167609 0.0601297 0.122339524
000110 1a 62 88 3c ad cb 8f 3d 65 64 5f bd 14 3b 8f 3d
       0.016648341 0.0702127 -0.054539103 0.0699369
000120 f3 ae 0d 3e 63 dd 0f bd b0 c3 43 3d ee f2 54 3d
       0.13836269 -0.03512324 0.047794044 0.05198949
000130 9f 13 d6 bc 07 ed a5 3b e5 31 04 be c5 ca ba 3b
       -0.026132403 0.0050636563 -0.12909658 0.0057004415
000140 be c0 7b bd 5b 5d 9d bd b4 24 74 3d 1a 6a 96 bc
       -0.06146311 -0.07683822 0.059605315 -0.01836114
000150 4c 3e 12 3d 0a 0c 24 bd 7b 1a 3a 3d c7 70 4a 3d
       0.035703942 -0.040050544 0.04543541 0.04942396
000160 ff 3e 2f 3d fb d3 79 3d d0 4d 88 bd cd f2 50 bd
       0.042784687 0.060993176 -0.066554666 -0.051012803
000170 16 1c 3a bd eb 2f 27 bd 8c 03 18 bc 62 4e 7a bd
       -0.04543694 -0.040817183 -0.009278189 -0.061109908
000180 ee f5 8b 3d b2 9a 00 3c 98 3e 97 3d f5 7d 9e 3d
       0.06834017 0.007849382 0.07384986 0.07738868
000190 cd 4a 17 bc a4 c6 9c 3d ab 76 ee 3c c0 9c 83 3d
       -0.0092341425 0.07655075 0.02910932 0.06426382
0001a0 84 0c 45 3e 66 07 2d bd 12 d3 b9 3b 74 10 2d be
       0.19243056 -0.042243384 0.0056709135 -0.16900808
0001b0 8e e8 57 3e 55 90 aa bd 02 63 b4 3d 1a ab 4c bd
       0.21084806 -0.083283104 0.08807947 -0.049967863
0001c0 cb dc 5e 3d c7 53 87 bd 0c 1d 0a bd 46 d4 d5 3d
       0.054409783 -0.06607776 -0.033719108 0.104408786
0001d0 e4 04 88 bc 5d 0b c7 3c 86 41 ff bd b2 cc ed 3c
       -0.016603895 0.02429741 -0.124636695 0.02902827
0001e0 f7 22 21 bc 8b 3a 61 3c 8e a8 53 3c a3 7e be bc
       -0.009834996 0.013746868 0.012918605 -0.023253744
0001f0 f4 c9 ac 3c e7 39 8d 3d fc 3f bf 39 24 11 52 3c
       0.021092393 0.068958096 0.0003647803 0.012821469
000200 bb f3 a5 3b 7a fa b1 3d f0 6b 46 3d fd 72 64 3b
       0.0050644553 0.08690353 0.04844278 0.0034858577
000210 59 ea 99 3b b8 72 24 bc 38 5a 4f bd 1e 04 07 3d
       0.004697126 -0.010037117 -0.05062315 0.03296291
000220 65 a8 1f 3c 9d e8 60 be b5 62 55 bc b0 d3 78 3d
       0.009744738 -0.21963735 -0.013024022 0.060748756
000230 46 dc a4 3c 21 48 85 3d f5 cc b5 3b 13 d4 fb 3c
       0.020124566 0.06507898 0.0055481144 0.030740773
000240 76 a7 96 bd 24 67 cc 3d cf 17 8d bd 32 c4 08 3d
       -0.073561594 0.0998061 -0.06889307 0.03339023
000250 a5 2a 9c 3d ec 9b c2 bc 4b 32 51 3c 4f a4 ed 3b
       0.07625321 -0.02375599 0.012768338 0.007252253
000260 02 69 01 3d 28 1d a1 bd 8e a3 2f bd 33 10 10 3e
       0.031594284 -0.07866889 -0.042880587 0.1406868
000270 a7 e3 98 3d f0 9c 59 bc 00 40 aa 3d 05 88 34 bd
       0.07465296 -0.013282046 0.08312988 -0.04407503
000280 2d 8b 0e 3d c8 ed 58 bc de b4 35 bd a0 41 bc 3c
       0.034800697 -0.013240285 -0.04436194 0.022980511
000290 65 a5 34 bd 78 f8 93 bd c1 44 bd bd 11 44 7f 3c
       -0.044103045 -0.07225126 -0.092416294 0.015580193
0002a0 72 31 d5 3c 6e 6f ce bd d4 21 1c 3d 12 92 3c 3b
       0.026024554 -0.10079847 0.0381182 0.0028773588
0002b0 4b 1d 0c 3d 7d 44 1e bd 1c b9 15 3d 48 71 30 3e
       0.034207623 -0.038639534 0.036553487 0.17230713
0002c0 3d 21 ad bd 41 3e 31 bc 6a e2 21 3c 8b 39 a5 bd
       -0.08453605 -0.010818065 0.0098806415 -0.08067616
0002d0 72 d8 71 3d 16 00 a6 3d 06 13 da 3c 14 75 a8 3d
       0.05904431 0.08105485 0.0266204 0.08225456
0002e0 eb 8d 10 be 5d b8 9e bd d7 d8 04 bd cc 50 e2 ba
       -0.14116637 -0.07750008 -0.032433357 -0.0017266511
0002f0 17 58 a2 bb ae f0 85 3d c4 02 79 be 7f 46 e7 bb
       -0.004954349 0.06540047 -0.24317461 -0.0070579643
000300 29 f5 69 3d 2f ff 38 bd 36 48 4d 3c a4 7c 6b bd
       0.05711857 -0.045165237 0.012529423 -0.057491913
000310 bd d4 95 bd d2 72 1b 3d 23 43 91 bd d4 42 04 bd
       -0.07315967 0.037951298 -0.070928834 -0.032290295
000320 7a d5 88 bd cf e7 b8 3c 68 59 74 3c 93 ec 78 3c
       -0.066813424 0.022571472 0.014913894 0.015193122
000330 59 25 29 3c b6 22 49 bd 30 84 ee 3d 82 47 ed bc
       0.010323846 -0.04910537 0.116463065 -0.028964762
000340 62 ae 14 bd 11 8d 34 3e 2a 7b b4 3c 24 0f a3 bd
       -0.036299117 0.17631938 0.022031385 -0.07961872
000350 ab a6 63 bd 25 ea 77 bb 25 50 06 3d 85 94 ef bc
       -0.05557887 -0.003782877 0.032791276 -0.029245624
000360 13 22 7c bd 91 73 a7 3d 37 b3 fb bc ed b2 e2 bc
       -0.061555933 0.081763394 -0.030725105 -0.02767321
000370 4e f1 6f 3c 4f 35 77 3c 6d 42 eb bb 1f 56 26 bd
       0.014644934 0.015088393 -0.0071795494 -0.040609475
000380 0c b6 6b 3b 0e 62 0a bd 84 f8 24 3d c6 df 24 bb
       0.0035966663 -0.03378492 0.040276065 -0.0025157793
000390 80 b4 db 3c 58 47 87 bb e4 15 1c bd f2 c2 1d 3d
       0.026819468 -0.004128378 -0.038106814 0.038515992
0003a0 6a bc aa bd e8 ea 72 3d 10 e4 53 bc 14 75 12 3e
       -0.083367184 0.059306055 -0.012932792 0.14302474
0003b0 2b bb 49 be 67 cd 18 3e 89 15 c1 3c f5 6a 8b bc
       -0.19700305 0.14922105 0.02356984 -0.017018775
0003c0 c5 48 96 bd 72 9a 83 3c ac a3 1e 3d af 35 86 3d
       -0.073380984 0.016064856 0.03873031 0.06553208
0003d0 9e 1f 66 bd c9 02 94 3d 26 f4 e8 3b 86 5f ea 3c
       -0.056182496 0.07227094 0.007109183 0.028610002
0003e0 2c 7e 26 3d e5 8b 26 3c 96 95 5c bb 9a ec bd 3d
       0.04064767 0.010165189 -0.0033658496 0.09273644
0003f0 16 4b 82 3d 1c 47 75 3d 5a ef c2 bb 89 74 09 3c
       0.06361978 0.05988227 -0.005948943 0.008389601

fc2.bias f4 [128]
000000 ac 81 aa bd 67 55 0d bd 41 55 39 3d 22 bb aa bd
       -0.08325514 -0.034505274 0.04524732 -0.08336474
000010 f6 9d 96 bd 34 7f 58 bd 25 42 1c 3b 13 3d bb bd
       -0.073543474 -0.052855685 0.0023843136 -0.09142508
000020 47 c4 fa 3c 06 64 bf bc d9 0d 56 3d 4f f8 c5 bc
       0.03061117 -0.023363125 0.0522593 -0.024166254
000030 cc 63 80 bb e8 52 ee 3b d3 b2 8b bd e6 71 14 be
       -0.0039181467 0.007273067 -0.068212174 -0.14496574
000040 66 7b e6 bc 43 6e 13 bd f0 67 ec 3c 5a b8 3b 3c
       -0.028135013 -0.035993826 0.028858155 0.011457527
000050 7d 18 8a 3c b1 12 aa 3b 91 c7 24 be 3b 9e 2e 3d
       0.01685738 0.0051902165 -0.16091754 0.04263137
000060 ea e0 e2 bd 05 b5 91 bd db af d9 bc ea c3 d3 3d
       -0.11078055 -0.07114605 -0.026573112 0.10340102
000070 86 5f eb 3b 9d 01 0b bd 53 ab e5 bc ec 51 79 bd
       0.007183018 -0.033937085 -0.028035795 -0.060869142
000080 a0 f9 68 3c bf 44 b4 bc b0 14 0b bd cc fa f1 bd
       0.0142196715 -0.022005437 -0.033955276 -0.11815414
000090 bc e4 15 3d 83 47 f4 3c 84 f9 94 bd 72 87 6d bd
       0.03659509 0.029819256 -0.07274154 -0.0579905
0000a0 ff f0 63 bd 46 9f ed bd e1 dd 88 3c 9f 33 fa bc
       -0.055649754 -0.116026446 0.016707363 -0.030542193
0000b0 13 45 09 be 13 5d 98 bd ec 7f d1 bc 14 d8 4c 3d
       -0.13405256 -0.074396275 -0.025573693 0.050010756
0000c0 e6 0a 11 3d 2f d5 a6 bd 86 89 16 bc ae 97 b5 3d
       0.035410784 -0.0814613 -0.009188062 0.08866821
0000d0 16 2f 84 3d 2d bf d6 3a ff 79 5c bd e6 7f a3 bd
       0.064542934 0.0016383879 -0.053827282 -0.07983379
0000e0 63 03 c3 bd 37 e5 c3 3c 70 32 8c 3d ca 9f c7 bd
       -0.0952213 0.02391301 0.06845558 -0.09747274
0000f0 d8 95 41 3d d2 2b 0c bd 97 bc 82 3c f7 ca b3 3c
       0.047262043 -0.034221478 0.015959067 0.021947367
000100 22 60 a4 3d 4a 6d 65 3d eb 5a 31 3d 05 68 df 3d
       0.080261484 0.05601243 0.043299597 0.10908512
000110 22 9e 92 3c f9 59 98 3c 6a f4 91 3d 0a 1a b6 3c
       0.01789767 0.01859759 0.071266964 0.022229213
000120 be 82 02 3d 39 00 4e be 85 37 3e bc 85 41 32 3d
       0.031862967 -0.20117272 -0.011609917 0.043519516
000130 6d 7f bd bc 8f 17 82 bd 5d ea 01 3d 73 15 76 bd
       -0.02313205 -0.0635215 0.031717647 -0.06007905
000140 a7 b6 5f bb d2 c2 01 bd 88 f5 01 3d 0f f2 11 bd
       -0.003413597 -0.031679936 0.031728297 -0.035631236
000150 a8 af ce 3c b3 d3 19 3d b1 80 ac 3d 88 19 e4 bc
       0.025230244 0.037555408 0.084229834 -0.027844205
000160 96 29 04 3d d0 aa 92 3d 36 f5 2f bd ac a7 e6 3d
       0.032266222 0.07161486 -0.04295846 0.112624496
000170 48 33 95 3b a3 ba 86 3d 08 00 92 3d 2b 07 00 3c
       0.0045532323 0.06578567 0.07128912 0.007814209
000180 be c3 6e 3d 1d f2 9f bc f3 cd bd 3c 90 ea be 3b
       0.058292143 -0.019524628 0.023169493 0.005826302
000190 1d 8c 89 3d cf df 0f be 5d ea 55 bd bf 71 98 3c
       0.067161776 -0.1405022 -0.05222546 0.018608926
0001a0 bb cb a3 3c f1 c5 a5 bb 8c 6f ab 3d 77 c0 8b bd
       0.019994607 -0.005058997 0.08370885 -0.06823819
0001b0 80 7c d6 3c dc f4 37 3d ee 81 e1 bc f5 13 1f bd
       0.026182413 0.04491125 -0.027527776 -0.038837392
0001c0 c4 36 47 bd 14 41 8a 3d 4a 50 13 3d 52 ab 85 3d
       -0.048636213 0.06750694 0.03596524 0.065268174
0001d0 af 1b c9 bd 86 12 02 bd bb 66 3e bc 56 c1 77 3b
       -0.09819733 -0.031755947 -0.011621173 0.0037804446
0001e0 a0 dc 03 3d 87 f9 39 bd 13 7a 1e be 4c 63 5d 3d
       0.032192826 -0.045403983 -0.15476255 0.054049775
0001f0 06 94 16 bd ff ca 8b 3c 76 56 34 bc 18 7c 22 bd
       -0.03676226 0.01706457 -0.011006942 -0.039669126

fc3.weight f4 [128, 128]
000000 33 93 5d bd 41 f0 40 be 48 b8 07 be ec ba 40 3d
       -0.05409546 -0.1884165 -0.13253891 0.047053263
000010 ef a6 af bc 76 02 92 bc 45 d8 96 bd 8b 92 39 3d
       -0.021441905 -0.01782344 -0.07365469 0.04530577
000020 de 0e 7a bc f3 a4 36 be 73 92 19 bd 08 fa 45 bd
       -0.015262334 -0.1783636 -0.03749318 -0.04833415
000030 29 92 01 3d 86 a1 81 3c a0 5b 00 bd 7d e3 2e 3e
       0.03163353 0.01582409 -0.03133738 0.17078967
000040 5b 4c 8e be b3 6e 23 bd c8 a7 cb bd 0b cb 89 3d
       -0.2779263 -0.039900493 -0.09944111 0.067281805
000050 6c 3d ab 3d e9 85 d2 3c 59 01 93 3d 7a 53 88 3d
       0.08361325 0.025698619 0.071779914 0.06656547
000060 d2 83 30 bc a7 1e f1 3b 17 82 5a be 67 54 58 3b
       -0.010773616 0.0073583904 -0.21338688 0.0033009292
000070 f9 17 71 3d 48 db 34 3c 9b bc 03 3d 40 ae be 3c
       0.058860753 0.011038609 0.03216229 0.023276448
000080 cd 6d 22 3e ae cb cd 3c af c5 01 3d 05 8f 58 3e
       0.15862198 0.025121536 0.031682666 0.21148308
000090 f2 75 f2 3c 43 b3 6f 3d e7 3b e2 bd e0 94 ed bc
       0.029597256 0.058520567 -0.11046582 -0.029001653
0000a0 53 4a 00 bd dc 78 5e 3d c2 b8 df bc dc 81 b9 3d
       -0.03132088 0.05431448 -0.02730978 0.09057972
0000b0 df 45 b6 3d 04 68 07 bd b0 d1 85 bd 72 35 af bc
       0.089000456 -0.03305818 -0.06534135 -0.02138779
0000c0 f2 a9 0a 3d f8 f6 a6 3d 55 8b a2 bc f1 10 9d bd
       0.03385348 0.08152574 -0.01984183 -0.07669247
0000d0 20 28 7d be 95 b5 cf 3c 7c d1 9a 3d 15 42 97 bd
       -0.24722338 0.02535514 0.07559487 -0.07385651
0000e0 69 e7 a1 3d e8 9d 48 bd cd c6 8d 3d 0d 4b aa 3d
       0.07905466 -0.048978716 0.06922684 0.08315096
0000f0 5b 50 8b 3d 65 29 6e 3c 79 5b 0e bd 95 33 da 3d
       0.06802436 0.014536236 -0.034755204 0.1065437
000100 1c b7 4d bd 2f ee cb 3c 26 01 16 bc f3 94 1b 3d
       -0.050223455 0.024893848 -0.009155547 0.037983846
000110 c8 04 35 bc d7 21 13 3e 7b 88 9f bc 20 dc b7 bd
       -0.011048503 0.14368378 -0.019474259 -0.089775324
000120 01 82 a9 3d b9 0b 90 3d fc 47 0a 3e 05 5c 45 be
       0.082767494 0.07033486 0.13504022 -0.19273384
000130 12 e1 2e bd b4 4e ec 3d c1 0f 1b 3d 2f bf 5a bd
       -0.042695113 0.11538449 0.03785682 -0.053404983
000140 b5 a4 29 3d 5a 2a 4a bd aa de 88 3d ba 87 cf bd
       0.041416842 -0.049356796 0.06683095 -0.1013331
000150 82 a8 8f 3d 19 43 18 be 57 95 e1 3d f1 35 83 bd
       0.07014562 -0.14869346 0.110148124 -0.06406773
000160 07 9f a1 bc dc a9 9e 39 b0 b4 ad 3b 5f e0 4f bc
       -0.01972915 0.00030262663 0.0053010806 -0.012687772
000170 c2 3e 4c be 85 67 44 3c 35 36 b0 bd 19 7e 9d bd
       -0.19945815 0.011987572 -0.08604089 -0.07690067
000180 0f a0 aa be 4f 91 51 3d a5 29 c0 bd 7b 34 0a 3e
       -0.3332524 0.051163968 -0.09382943 0.13496582
000190 82 c1 a1 3d 45 b9 10 3e 1d b4 32 be ff 64 97 bb
       0.07898237 0.14133175 -0.1745152 -0.004620194
0001a0 95 a5 c8 3d d6 20 bb 3d 96 68 26 be bc db 3e be
       0.09797207 0.09137122 -0.16250834 -0.1863851
0001b0 5c 09 f0 3b da e9 0b 3b d7 bc 13 bd 2a f4 6a bc
       0.0073253345 0.0021349103 -0.036068764 -0.01434044
0001c0 cb e2 ff 3c 16 46 84 3b 10 7c ea 3d fa 7b c1 3d
       0.031236073 0.004036675 0.11449444 0.09447475
0001d0 59 e6 2f bd a2 c4 b3 3d de b3 b2 3d 1f f6 c1 ba
       -0.042944286 0.08777739 0.08725713 -0.0014798081
0001e0 9a 0e 66 bd c3 e0 a3 bd c9 f0 80 bd 62 c4 74 bd
       -0.05616627 -0.08001854 -0.06295926 -0.059757598
0001f0 9c 3a b3 3d 28 49 d7 3d 09 08 86 3d d8 a4 aa 3d
       0.08751413 0.10512 0.06544501 0.08332223
000200 d8 70 9f 3c 5a 10 8a bc 2e 3a 81 bd 79 08 e2 bc
       0.019462988 -0.0168535 -0.06309925 -0.02759193
000210 39 bb 80 ba 6c b4 e6 3d 9e 14 3b 3d c2 67 cb bb
       -0.0009821422 0.112648815 0.04567396 -0.0062074373
000220 9c 60 d7 3c fc 88 55 bd b8 83 f8 3b 98 f0 bb 3d
       0.026291184 -0.05213259 0.0075840615 0.09176749
000230 c1 2a a2 3d 4f de 75 3b f8 e8 f0 bc 90 ba db bb
       0.07918311 0.003751654 -0.029407963 -0.0067055896
000240 6c a7 12 3b 01 a0 c1 3d 97 ea ae b9 e1 e7 37 3e
       0.0022377623 0.094543464 -0.0003336265 0.17959549
000250 c5 33 89 3c d0 3c d6 3c 75 09 98 bd 27 6a 28 bd
       0.016748318 0.026152045 -0.07423679 -0.04111686
000260 0c 24 74 3d eb 70 bf bb de 4e a2 3c d4 70 85 bd
       0.05960469 -0.0058423183 0.019812997 -0.06515661
000270 0e 38 80 bd 49 b6 81 bd b3 d7 08 3e 3e 14 a5 bd
       -0.062606916 -0.06333596 0.13363533 -0.080605015
000280 81 b4 cd 3c ae 28 7a bd 10 96 61 bc e0 68 7a bc
       0.025110485 -0.06107395 -0.013768688 -0.015283793
000290 8b a4 13 bd 7a 16 95 3d 00 31 6f bc a1 48 39 3d
       -0.036045592 0.07279678 -0.014599085 0.04523528
0002a0 3b 63 42 3d d9 a4 c5 bb e8 93 5d bd 9a b3 21 3d
       0.047457915 -0.0060316143 -0.054096133 0.039477922
0002b0 20 ec 8a bd 65 1f 2c bc fc 79 a1 3c f2 52 05 bd
       -0.067833185 -0.010505532 0.019711487 -0.032549806
0002c0 dd 6a 89 bd ec dd 5d 3d 39 0e 49 3d be cb 02 3d
       -0.06709836 0.05416672 0.04908583 0.031932585
0002d0 8c 1d d9 3c 6d ed 12 3d 1a 91 92 bd a2 26 a8 3d
       0.026503347 0.035870958 -0.07156582 0.082104936
0002e0 b6 0f 8a bd 14 0b 72 3d 10 c9 98 bd 2e 3f 67 bc
       -0.06741278 0.059092596 -0.07460225 -0.014114184
0002f0 68 a1 f9 38 3f 30 e2 bd 42 e8 4e bc b5 f6 fc bc
       0.000119033095 -0.110443585 -0.012628617 -0.030879358
000300 28 2f fa 3d 65 18 63 bd 79 77 0e 3d 82 23 82 bd
       0.122160256 -0.055443186 0.034781907 -0.06354429
000310 ac 0c 0b bd 08 cb 3f bd ec e1 7f bc f2 2c bb 3d
       -0.03394763 -0.046824485 -0.015617829 0.09139432
000320 1f 64 d2 3c 46 14 be bc 79 e0 92 3c 9b 22 48 3d
       0.025682507 -0.023203027 0.017929303 0.048861127
000330 c8 de 14 3e 74 cf ba bc 1d 3c 0d 3e 16 dd 42 3d
       0.1453811 -0.022804 0.13792463 0.047574125
000340 d7 39 fd bc dd d3 b1 3c 8f 60 76 bd 98 c1 db 3c
       -0.03091137 0.02170747 -0.06015068 0.026825711
000350 0c 7a e0 bb 99 5a 5d 3d bb 07 95 ba 39 d2 e3 3c
       -0.0068504866 0.05404148 -0.0011370102 0.027810203
000360 7c 5a 10 3d bb c7 83 3b 0b 3b 88 3d 97 ed 8e ba
       0.035242543 0.0040216125 0.066518866 -0.0010904548
000370 d6 1e ea bb f1 56 19 3d 44 42 c9 bc 50 06 30 bb
       -0.007144789 0.03743643 -0.02456773 -0.0026859231
000380 99 a5 b7 3c f6 52 25 3d 0e d6 83 3c 02 91 8d 3d
       0.02241783 0.04036232 0.01609328 0.06912424
000390 be 67 56 bd 65 3b de bc 2e 9d 7f bb 8e 40 94 bd
       -0.05234503 -0.02712793 -0.0039003599 -0.07238875
0003a0 b5 e1 d5 3d 02 35 3c 3d 71 12 c2 3c 46 a5 8c 3c
       0.10443441 0.04594899 0.023690434 0.017168652
0003b0 03 a3 bb bc a5 e9 b5 bd 6a 8e cd bd 12 9d 97 3c
       -0.022904878 -0.08882455 -0.10036929 0.018507514
0003c0 3e ae b4 bc 46 e1 86 3d c1 39 0c 3d 16 44 c9 bc
       -0.022055741 0.06585936 0.034234766 -0.024568599
0003d0 26 6b 74 3d af de 2d 3d 43 6a 7f bd 11 bd a2 3d
       0.059672497 0.042448696 -0.0623572 0.07946218
0003e0 ca ec 74 bd 2c 6f 98 bb d9 e8 52 3c 24 04 13 3d
       -0.059796132 -0.0046519246 0.012872898 0.03589262
0003f0 88 9f fb bc 81 89 64 3c 58 07 8c bd cd 8f b7 3c
       -0.030715719 0.013948799 -0.06837338 0.022407437

fc3.bias f4 [128]
000000 78 2f b9 3b 07 ca 5e bd 81 35 1b 3e 86 94 87 3d
       0.0056514107 -0.054391887 0.15157129 0.066201255
000010 c1 1b 20 be 43 9c 31 3e f8 e1 12 be da d9 29 3e
       -0.15635587 0.17344765 -0.14344013 0.1658701
000020 4c 0f 10 3e 55 f1 28 3e 1a 3c c2 3d 9e 2d 20 be
       0.14068335 0.16498311 0.0948412 -0.15642402
000030 28 6f 17 3e 8f 87 d5 bb 81 f7 f2 3d c0 23 3d 3e
       0.14788496 -0.006516404 0.11863614 0.18470669
000040 de 7e 0c be 2c ba de bd e6 e3 ae 3d e2 60 11 3e
       -0.13720271 -0.10875353 0.08539562 0.14197114
000050 7c 14 2f 3e 63 43 2f 3d 60 24 ed 3d bf 2c 56 bd
       0.17097658 0.042788874 0.115792036 -0.052288767
000060 41 b6 dd 3d 10 4b 22 3e 02 d3 ed bc a9 4a db bd
       0.10825778 0.15848947 -0.02903128 -0.107076
000070 e9 e8 f8 bd da aa 8e 3d da a3 51 3e 7c c3 38 3e
       -0.12153799 0.06966181 0.2047266 0.18043321
000080 e5 16 f4 bc 88 1b 60 bd 9d 23 2c 3e 9f cc 4c 3e
       -0.029796073 -0.054713756 0.1681046 0.19999932
000090 e6 52 5f 3d 12 98 c8 bd ce 92 0d be 5f 2c ec bd
       0.054522417 -0.0979463 -0.13825533 -0.115319006
0000a0 ac ff 12 be 93 bb 3a 3e d2 d2 0e bd c3 d6 3b 3e
       -0.14355344 0.18235616 -0.034869023 0.18343644
0000b0 33 c0 c7 3d 21 5c 04 bd 7d cf d0 bd da 63 55 bd
       0.09753456 -0.032314423 -0.10195825 -0.05209718
0000c0 61 bd 03 be 56 b9 58 3e 39 e5 d7 3d 37 8b 14 3c
       -0.12865211 0.2116445 0.105417676 0.0090663945
0000d0 91 d6 3a be 4a 80 86 bd d7 ad 2e 3e 14 3b 8c 3d
       -0.18245913 -0.06567438 0.17058502 0.06847206
0000e0 c8 b5 c0 3d fb 12 d2 bd 43 e9 14 bd 25 93 2c 3e
       0.09409672 -0.102575265 -0.03635527 0.16853006
0000f0 de d6 00 be 9a da 15 3e 63 f8 cc bd 08 60 1d 3e
       -0.12581965 0.14634171 -0.100083135 0.15368664
000100 f3 bc 93 bc 13 b7 43 3d 9b f6 20 be 16 b3 fd bd
       -0.018034434 0.047782015 -0.15719073 -0.123876736
000110 0b 6f d8 3d 88 48 15 3e fe 20 81 bc 50 de 3c 3d
       0.10568055 0.1457845 -0.015762802 0.04611045
000120 4c b8 24 3e 7b be 9f bd e5 9b 8a bd d0 2f b3 3d
       0.16085929 -0.07800003 -0.06768016 0.08749354
000130 52 48 02 be d9 3a 25 be ff 9c 09 be 50 d9 3d 3e
       -0.127229 -0.1613573 -0.13438796 0.1853993
000140 fc d9 f6 bd fc f4 39 be b8 6d fd 3d d5 b6 a9 bd
       -0.12053296 -0.1815986 0.12374443 -0.082868256
000150 65 db c8 3d 28 23 2e be 24 6c 59 be c0 a8 99 ba
       0.09807471 -0.17005599 -0.21232659 -0.0011723265
000160 f0 5e 76 3d bd 20 2b 3e e7 28 61 3e 4a 40 f0 bd
       0.060149133 0.16711707 0.2198826 -0.11731012
000170 7e 8c 98 3d ee 7f 3b 3e 06 50 93 3d ab b5 77 3e
       0.07448672 0.1831052 0.07192998 0.24190395
000180 ee 7b e3 3d f0 ea ea 3d fe b2 7b bd e9 a8 f4 3d
       0.11107622 0.11470592 -0.061449997 0.119462796
000190 f4 6e 13 3e 43 cc 35 3e 8c b7 04 be a9 db 18 3e
       0.14397794 0.17753701 -0.12960643 0.14927544
0001a0 5c 7a 58 3e 1b e1 36 3e 4b aa 3b 3e ff 3a b6 bd
       0.21140426 0.17859308 0.1832668 -0.08897971
0001b0 da 90 54 3e ba 3d ca 3d 58 3d 52 bd 3d 0f 2c bd
       0.20758381 0.09875055 -0.051328033 -0.04200672
0001c0 1d 96 9d 3d 75 b8 32 3e 7e 7a 2c 3e 52 7a 88 bd
       0.076946475 0.17453177 0.16843602 -0.06663956
0001d0 b7 75 5c bc 25 fa f3 bc 47 10 c8 bd a5 47 e6 3d
       -0.0134558 -0.029782364 -0.0976873 0.11244134
0001e0 69 97 1b 3e e1 a6 dc bc 5f d6 b6 3d 3c 30 1e 3e
       0.15194477 -0.026935043 0.08927607 0.15448087
0001f0 f5 ca 04 3e 40 fb 57 bc bc 6a a1 bd 0c 34 2f 3d
       0.12968047 -0.013182461 -0.07881686 0.042774245

final.weight f4 [1, 128]
000000 95 67 2e 3d cf d1 35 be ec 1a 25 3d c8 6a fb 3c
       0.042579252 -0.17755817 0.040308878 0.030690566
000010 12 b7 1d be ba 10 ad 3d 8b 05 1e be d8 27 42 3d
       -0.15401867 0.08450456 -0.15431802 0.04740128
000020 a1 e8 e6 3c e5 66 0d 3d d5 8b 9a 3d 10 50 0e be
       0.028187098 0.034521956 0.07546202 -0.13897729
000030 fd 15 c0 3d 6d 7b 16 be d1 e0 23 3d 3d 98 10 3d
       0.09379194 -0.1469552 0.040009324 0.035301436
000040 6f 36 1c be d2 51 51 be 79 53 2b 3d 27 77 1f 3d
       -0.1525514 -0.20441368 0.041827653 0.038931992
000050 6e 77 d3 3c 58 d3 42 3d 5f eb 04 3d de 1a 14 be
       0.025813784 0.047564834 0.03245103 -0.14463374
000060 70 b8 45 3d db 1c 2a 3d f4 64 33 be 3f bd 11 be
       0.048271596 0.041531425 -0.1751898 -0.14232348
000070 1b 91 21 be 71 51 96 3d dd 84 03 3d 32 a5 99 3d
       -0.1577801 0.073397525 0.03210913 0.07502212
000080 9a ac 1e be 96 45 36 be 6e bc 75 3d 83 37 e5 3c
       -0.1549553 -0.17799982 0.059994154 0.027980572
000090 d0 50 1e 3d e8 91 0b be 63 ba 4b be 48 65 26 be
       0.038651288 -0.13629878 -0.1989532 -0.16249573
0000a0 1a 44 41 be cb 3a 4f 3d 60 95 10 be 85 f2 8b 3d
       -0.18873635 0.05059318 -0.14119482 0.06833366
0000b0 97 32 9a 3d 98 34 38 be 6b b1 22 be c9 1d 25 be
       0.075291805 -0.17988813 -0.15887992 -0.16124643
0000c0 01 8c 08 be 33 eb 19 3d af 72 1c 3d 98 9e 28 be
       -0.13334657 0.03757782 0.03819531 -0.16466749
0000d0 11 a0 3f be bc 3e 15 be 35 c9 34 3d 50 27 30 3d
       -0.18713404 -0.14574713 0.0441372 0.04300624
0000e0 61 21 d2 3c 53 58 10 be 24 b4 47 be c4 d1 2c 3d
       0.025650682 -0.14096193 -0.19502312 0.042192236
0000f0 a6 c1 1f be a1 0b dd 3c 55 0c 88 be b9 73 c4 3d
       -0.15601215 0.026983084 -0.2657191 0.09592385
000100 d4 20 4b be b2 4e 09 3d 0f 98 22 be b8 59 06 be
       -0.19836742 0.033522315 -0.15878318 -0.13120162
000110 36 0e 60 3d ea 1c e4 3c 6b 16 2f be 43 f1 f8 3c
       0.054701053 0.027845819 -0.17098396 0.03038848
000120 14 5f 68 3d df 15 57 be e2 4a 34 be 4f c5 04 3d
       0.0567313 -0.21004437 -0.1760669 0.03241473
000130 c4 60 26 be 7b a5 7e be 43 41 2c be 91 d9 99 3d
       -0.1624785 -0.24867813 -0.1682177 0.075122006
000140 58 ed 24 be 45 0c 45 be 70 51 57 3d 69 c0 36 be
       -0.16106164 -0.19242962 0.0525679 -0.17846836
000150 16 55 4a 3d a7 85 14 be e3 ff 30 be 90 41 3e be
       0.04939755 -0.1450411 -0.17285113 -0.18579698
000160 82 15 3d 3d 69 1d 58 3d c1 70 23 3d c7 63 25 be
       0.04616309 0.052762423 0.039902452 -0.16151343
000170 57 c6 57 3d fb 16 69 3d 7c bf 8e 3d df 87 e9 3c
       0.052679386 0.05690668 0.069701165 0.028507171
000180 b5 d2 78 3d 34 07 47 3d 22 2b 34 be ef 2d 97 3d
       0.06074782 0.048590854 -0.17594579 0.07381808
000190 12 e3 06 3d a1 61 a2 3d 90 d6 49 be 2d ad 62 3d
       0.032931395 0.079287775 -0.19710755 0.055340935
0001a0 cd 07 91 3d 2d b8 8d 3d 35 26 1a 3d ab 7c 46 be
       0.07081566 0.06919894 0.037634093 -0.19383495
0001b0 5f 5f e1 3c ea 8f 19 3d 1e 8a 0f be 7b 11 34 be
       0.027511297 0.037490763 -0.14017531 -0.17584793
0001c0 77 f2 07 3d 51 a8 0c 3d 72 ef ac 3d 93 01 2e be
       0.033190217 0.034340207 0.08444108 -0.16992788
0001d0 af ad 3a be 0e 76 d1 bd 01 f3 44 be 77 f0 51 3d
       -0.18230318 -0.10227595 -0.19233324 0.051254716
0001e0 da 30 95 3d a8 54 3f be a7 85 ae 3d 9f 50 0d 3d
       0.07284708 -0.18684638 0.08521586 0.034500714
0001f0 fa e1 a6 3d 20 b7 3c be 0e dc 2b be fb 63 82 3d
       0.0814857 -0.18429232 -0.16783163 0.06366726
