TrainingLogs/Pricing/np_Epoch_40.pt (torch, 139015 bytes, 7 tensors)

fc1.weight f4 [128, 6]
000000 ca dd 4b bd 92 df 06 3e 4c 0b fd bd 21 17 d7 3e
       -0.04977206 0.13171223 -0.1235567 0.42009833
000010 21 7d d0 3d a5 b9 84 3b 3e 6f fa bd 91 54 68 be
       0.101801164 0.004050451 -0.12228249 -0.2268851
000020 31 a5 a6 3d 5b 07 f0 bd 8e b9 26 be 41 51 29 bd
       0.081369765 -0.11720153 -0.16281721 -0.041337255
000030 fe ba c1 3e 1f 81 1a 3d b7 91 67 bd 8b ee 60 bb
       0.37837976 0.037720796 -0.05653545 -0.003432187
000040 bc 4e 8f 3e 24 9e d2 3d 93 fd 24 3e 5d 7f 93 bd
       0.27989757 0.10284069 0.16112356 -0.07202027
000050 e6 6f 7f 3c f5 f8 4a 3b b2 7f ad 3d 68 3c 88 3e
       0.0155906435 0.0030971144 0.084716216 0.26608586
000060 7e 51 21 be 59 80 8b 3e c6 0a 98 3c ab 09 f0 3d
       -0.15753743 0.2724636 0.018559825 0.11720594
000070 f3 cc 8a be 6e c4 47 bd 72 a4 bf be 78 e5 81 3d
       -0.2710949 -0.048771314 -0.3743015 0.06342596
000080 83 25 41 be 1d 87 0f be 8c db 92 be 32 93 30 be
       -0.18861966 -0.14016385 -0.28683126 -0.1724365
000090 09 be 8a be 61 0c 9c 3d 08 c7 ba bd b4 b9 99 be
       -0.2709811 0.076195486 -0.091199934 -0.30024493
0000a0 09 44 0d be 09 fa 6e 3e 32 83 b0 be 4e c3 da 3e
       -0.13795485 0.23337568 -0.34475094 0.4272713
0000b0 ca cf 15 bc 83 d6 4d 3d 64 c2 30 bd 57 35 0b bd
       -0.009143779 0.050253402 -0.043154135 -0.033986416
0000c0 15 a1 dc 3e 62 c1 61 bc e9 5a d1 bd 94 55 5a bd
       0.43091646 -0.013779016 -0.10222418 -0.05330427
0000d0 bd 13 c5 bd 49 62 42 3e 57 78 60 3d 98 8b 8c 3d
       -0.096229054 0.18982805 0.054802265 0.06862563
0000e0 e6 84 b0 bb 8c c9 dc 3e 10 44 6a 3e 5c 20 52 be
       -0.0053869365 0.43122518 0.22877526 -0.20520157
0000f0 77 62 b4 3e 5a 22 29 3e 27 9b 42 bd 80 45 98 bd
       0.35231373 0.1651701 -0.047511246 -0.07435131
000100 0b 72 07 3e ba 4b c9 3d 3d 50 ad 3e e2 c8 d3 be
       0.13227098 0.09828897 0.3385028 -0.413642
000110 ca 2f 21 3e f7 72 bf bd 61 0a 5e bd 03 24 8d 3d
       0.15740886 -0.093481 -0.054209117 0.06891634
000120 a1 2b 90 3e 58 03 7c 3e e8 48 85 bd 6b e0 95 bd
       0.28158286 0.2461065 -0.065080464 -0.07318195
000130 61 35 69 3e 1b 7d 19 be 17 9f 3d 3e 47 a9 b9 3d
       0.22774269 -0.1498913 0.18517719 0.0906549
000140 3d 97 fe 3d 46 ca ac bd cb 92 9a 3e 1d 76 78 3d
       0.1243119 -0.08437018 0.3019012 0.060659517
000150 b8 7c d0 be c1 01 07 3e 2f f8 38 3a 5b c2 84 bd
       -0.40720153 0.13184263 0.0007056025 -0.06482383
000160 05 a5 e7 bd ef 8d 39 3d 70 ee aa 3e 71 e7 db be
       -0.11310772 0.045301374 0.33385038 -0.42950013
000170 03 2b 84 bc d0 ad a9 3d d8 68 50 3d 8f 69 ce bc
       -0.01613379 0.08285105 0.050881237 -0.025196819
000180 c1 60 d4 3e 7b 44 1b be d7 81 2b 3d cc 7a 4c 3d
       0.41480067 -0.15162842 0.04187187 0.049921796
000190 67 c7 11 3e ce ac 32 3c ef f6 3e be 0e 55 d3 3e
       0.14236222 0.010905458 -0.18648885 0.4127583
0001a0 8a b2 02 3e d2 c2 74 bd 80 eb fa 3d 9f 25 c2 bd
       0.1276342 -0.059756108 0.12251949 -0.09479832
0001b0 65 dd 85 be 32 81 40 be 3f 93 08 be 33 a6 4d 3c
       -0.26145473 -0.18799284 -0.1333742 0.012551832
0001c0 c0 1c 80 bd 90 06 3a 3d af db b3 3e 04 09 63 be
       -0.062554836 0.045416415 0.35128543 -0.22171408
0001d0 48 33 1f bd eb db b5 3c 02 1c 8a 3d a8 39 71 bc
       -0.038867265 0.022199592 0.06743623 -0.014723219
0001e0 d8 c2 da 3e 0d 3e f5 be 85 dc 49 bd 7c 0c 6c 3c
       0.4272678 -0.47898903 -0.04928257 0.014407273
0001f0 85 25 2d 3d f3 90 97 3c ad 25 aa be a2 e3 7b 3c
       0.04227211 0.018501734 -0.3323187 0.015374096
000200 1b 33 03 be d6 98 50 3d 53 79 76 be 32 2d 4e be
       -0.12812464 0.050927006 -0.24069719 -0.20134428
000210 38 9f 45 3d 0a 15 79 be 31 ac 39 be 71 7e a4 3e
       0.048247546 -0.24324432 -0.18132092 0.32127717
000220 24 b5 8e 3e d8 a2 b7 3c 62 96 c9 bd 22 6b e8 3c
       0.27872574 0.022416517 -0.09843136 0.028371397
000230 a5 47 25 3d 6b bb 21 3f 2f e2 d7 bc 09 75 93 bd
       0.04035153 0.631766 -0.02635297 -0.07200057
000240 2d e6 88 3d d1 78 74 3e 82 0e 1f be b2 1b b8 be
       0.066845275 0.23874213 -0.15532878 -0.3595863
000250 56 e3 55 be 56 f3 48 be 50 a1 2a 3e 45 b9 aa bd
       -0.20887503 -0.19624075 0.16663098 -0.083361186
000260 7f 6f 88 bc 95 38 21 be 32 64 83 3e 05 09 23 3e
       -0.016654728 -0.1574424 0.2566238 0.1592141
000270 da ff 42 be 96 7a 80 3e 2c a1 1e 3d 14 e6 9c be
       -0.19042912 0.25093526 0.038727924 -0.30644286
000280 e0 46 96 be 91 7b 49 be cf 03 4f bd 3c 9a ec 3d
       -0.29350948 -0.19676043 -0.05054074 0.11552855
000290 5c 68 b8 bc d4 e7 c1 be 35 cb aa bc f5 87 42 bd
       -0.0225107 -0.37872183 -0.02084885 -0.04749294
0002a0 f3 a4 62 3e f4 07 6f 3d 7a 94 37 3e b5 c5 51 3e
       0.22133236 0.058357194 0.17927733 0.20485575
0002b0 58 51 8f bd e2 2b 88 3e e6 77 bc be 51 a4 c0 3e
       -0.06997937 0.2659598 -0.36810225 0.37625363
0002c0 0b 6d 1c bd 83 5a 85 3c 88 e8 5c bd 83 9c 44 bd
       -0.03818993 0.01627851 -0.053932697 -0.048000824
0002d0 1d bb f9 bd 94 93 c0 be 87 a2 4d bc 9b 4f 2b 3d
       -0.12193892 -0.37612593 -0.012550957 0.041823965
0002e0 d9 db e4 bc 56 5e ac bd f1 33 ca be 8c 02 9d 3d
       -0.027936863 -0.08416431 -0.39492753 0.076665014
0002f0 ca 07 2b bd 18 bb 7a bc 9a 49 35 be 3a b7 cd 3a
       -0.041755475 -0.015303396 -0.17703858 0.0015694865
000300 ac 99 e6 be 11 81 1b 3e 84 7d 39 3d 3e 87 4a bb
       -0.45039117 0.15185954 0.045285717 -0.0030903365
000310 56 ed 60 bd 9d c7 36 3e b4 9c f4 be f2 0f 0e 3f
       -0.05491384 0.17849584 -0.47775805 0.5549308
000320 2e 92 3c bd 44 3f 13 3c 5f 26 2c bc ae 57 99 3c
       -0.046037845 0.008987252 -0.010507195 0.018718567
000330 bf 28 ee 3e 82 69 39 3d ea 12 8e bc 70 ef 29 3d
       0.46515462 0.045266636 -0.017343003 0.04148811
000340 e8 c5 77 3e 00 0f 42 bd 27 c9 06 3e 8b f8 d8 be
       0.24196589 -0.047377586 0.13162671 -0.42377123
000350 6b 41 97 bd 79 41 48 bb e6 38 f1 3d 41 19 49 3e
       -0.07385524 -0.0030556603 0.11778431 0.1963854
000360 ce 2d f0 be cf b1 76 3e ee 37 37 be 73 70 6a be
       -0.46909946 0.24091266 -0.17892429 -0.22894458
000370 e1 a2 4c be f3 8c 59 3e ba 53 bc be d1 f1 f5 3c
       -0.19984008 0.21245174 -0.36782628 0.030022534
000380 3b 1a a4 3d 11 4d b8 be ff 87 ef 3c 87 07 e7 3c
       0.080128156 -0.35996297 0.029239653 0.028201832
000390 0d cc c3 3e 33 d0 0c bf d2 67 a1 3d eb 50 06 bb
       0.38241616 -0.55005187 0.0788113 -0.0020495008
0003a0 a1 23 1e 3e e0 59 cf bd a2 de 03 bf 93 4e 51 3e
       0.15443279 -0.10124564 -0.51511586 0.2044013
0003b0 45 38 0d 3e 44 f6 8f bd ad 23 bd bd 02 47 04 be
       0.13790996 -0.07029393 -0.0923532 -0.12917712
0003c0 87 41 58 be d8 81 91 3c a5 18 79 3d db ea 5a be
       -0.21118747 0.01776211 0.06081452 -0.21378653
0003d0 35 05 c1 3d 08 7f 58 3e 7d 01 db 3e 20 81 5c 3d
       0.09424821 0.21142209 0.42774573 0.05383408
0003e0 a0 87 ef 3a 18 91 5c 3d fb 66 a5 3e 7b 3b 21 be
       0.0018274672 0.05384931 0.3230513 -0.15745346
0003f0 93 b2 e9 be 13 dc bd 3e 91 72 16 bd dd 21 2d bd
       -0.45644054 0.37081966 -0.036730353 -0.042268623

fc1.bias f4 [128]
000000 78 d8 d5 bd b2 b9 0f 3d f5 cd 90 be 23 aa ac be
       -0.10441679 0.035089202 -0.28282133 -0.33723554
000010 ae 12 84 be b3 c9 57 be a8 d4 fc bd 36 7e c6 3d
       -0.257955 -0.21073036 -0.123452485 0.096920416
000020 5c d1 b0 be 24 b3 3a bc 98 13 41 3e e3 8c 22 be
       -0.3453473 -0.0113952495 0.1885513 -0.15874057
000030 7d 71 d3 3d 6c ad 45 3e 0c ff 78 3e 20 4d 54 3d
       0.103243805 0.19304436 0.24316043 0.051831365
000040 5b c0 ca be be 3d 2d 3d 8c 1b a1 3e c0 13 28 bb
       -0.3959988 0.04229521 0.3146633 -0.0025646538
000050 8a 98 17 bd 6b 27 c3 3e 70 19 37 bd ef e0 6e 3e
       -0.037010707 0.3811601 -0.044701993 0.23327993
000060 df cf 08 3e 73 2c a8 3d 81 66 8b 3e 06 0c bc 3d
       0.13360547 0.08211603 0.27226642 0.09181981
000070 03 58 55 3b 51 2d b1 3d f2 4b d5 bd ab 5a e9 bd
       0.003255368 0.086512215 -0.10414876 -0.11394247
000080 f2 91 90 3e 06 f6 cf 3d 10 49 62 be 5a 87 5f 3e
       0.28236347 0.10154347 -0.22098184 0.21828976
000090 40 ab 11 3e 29 53 9b 3e 3c 0c 39 3e 58 9e 69 3e
       0.14225483 0.30336884 0.18071073 0.2281431
0000a0 c9 39 46 be 3d 7a 61 3d 5e c4 96 3e 89 81 3d 3e
       -0.19357981 0.055048216 0.2944669 0.18506445
0000b0 95 6d 01 bf ea 85 d2 be 64 5b 3e be e8 71 d2 3c
       -0.50557834 -0.41117793 -0.1858955 0.02568908
0000c0 b0 9e 61 bd c8 d4 6b bd 6c f8 21 3e 0c 2e a0 3e
       -0.055082977 -0.05757597 0.15817422 0.3128513
0000d0 d1 d4 74 be 34 93 44 3e 85 1f 77 3d 10 65 f7 3d
       -0.23909308 0.19196779 0.060332794 0.12079823
0000e0 32 e4 66 3d 1c 24 28 bd cc ab 37 be 47 22 48 be
       0.056369968 -0.04105006 -0.17936629 -0.19544326
0000f0 1b dc 8e 3e 0f 6b c6 bd aa 22 43 3d b8 2c b0 be
       0.27902302 -0.096883886 0.04764048 -0.34409118
000100 6d 61 c2 be 21 31 a4 bd 09 c0 a5 be 92 02 b7 bd
       -0.37964955 -0.08017183 -0.32373074 -0.08936037
000110 90 2a 73 be 3e 72 94 bd 02 35 ba 3d d6 52 c3 3d
       -0.23746705 -0.072483525 0.09092142 0.09537284
000120 43 a4 7b 3e ff 78 d1 3c b1 2b 6d be 28 4d f1 3c
       0.2457438 0.02557039 -0.23161198 0.029455736
000130 cc 05 72 be f0 d6 15 be 4c b9 60 be 6f c2 56 bd
       -0.23635024 -0.14632773 -0.21945685 -0.05243152
000140 3b f5 9e bd ae de 55 be b9 01 8a 3d 09 6f ae 3d
       -0.07761618 -0.20885727 0.0673861 0.08517272
000150 84 b7 45 3e 03 96 1c be 96 e8 51 be 6b 7e f8 3d
       0.19308287 -0.152916 -0.2049888 0.12133487
000160 46 a4 51 be 29 ce b7 3e 57 12 c2 be 53 a4 9a be
       -0.20472822 0.35899475 -0.37904617 -0.30203494
000170 be 96 0e 3e 6e c7 08 3d fc e5 a7 3d 62 a9 96 be
       0.13924691 0.033393316 0.08198163 -0.29426104
000180 03 50 dd be bb ee da 3e e8 a1 e0 3e 7a 34 60 3e
       -0.43225107 0.42760262 0.43873525 0.21895018
000190 5e 28 a2 bd c6 0b 23 be 6d 1e 20 3e 09 6b 4f be
       -0.07917856 -0.1592246 0.15636607 -0.20255674
0001a0 e4 96 b9 bd 92 ea 32 be d8 91 26 be 2a 25 de be
       -0.09061983 -0.17472294 -0.16266572 -0.4338773
0001b0 0d a6 f8 3e ec a3 57 be 4e 54 02 be 17 0a 2e 3d
       0.48564187 -0.21058625 -0.12727472 0.04249009
0001c0 c6 35 b0 be 83 fc be bd 6a 03 92 be b3 6c 50 3e
       -0.34416026 -0.093255065 -0.2851823 0.20353965
0001d0 83 12 c0 bd 03 e5 27 3e 66 9e 4e 3d 94 f9 fc bd
       -0.09378531 0.16395955 0.05044403 -0.12352291
0001e0 ea c2 22 3e db b9 23 be d6 92 57 be 40 e2 4b 3d
       0.15894666 -0.15988867 -0.21052107 0.049776316
0001f0 af 27 09 be ff 46 2d 3e 4c e1 63 be 69 79 8b 3d
       -0.13394044 0.16921614 -0.22253913 0.068102665

fc2.weight f4 [128, 128]
000000 b4 e6 58 bb 76 54 7b bd 2c 53 f1 3d 48 16 0f 3d
       -0.0033096494 -0.061359845 0.11783442 0.03493336
000010 fb 47 ba 3c d1 c8 9d 3c 59 29 92 3d 92 46 1b 3d
       0.022739401 0.019260796 0.07136793 0.037909098
000020 b3 9d 34 bd 1b cb a7 3d 53 17 4e 3d 05 bc c1 bb
       -0.044095706 0.08193036 0.050315212 -0.0059123063
000030 99 48 7d 3d 50 ee d3 3d a4 68 8c 3c e3 16 fc 3c
       0.061836813 0.10348189 0.01713974 0.030772632
000040 f1 af 42 3d 5a a9 2b bd 72 8d 51 3d a8 2c 60 bc
       0.047531072 -0.041909553 0.051160283 -0.013682522
000050 68 4c a9 bc 18 61 4b bc 8c d2 04 bd e0 06 16 3d
       -0.020666316 -0.012413286 -0.032427356 0.03662765
000060 a2 2f 62 bd c8 6c b8 3d 3a c7 cf bc 44 4d 55 3d
       -0.055221207 0.090051234 -0.025363553 0.05207564
000070 5e 10 be 3d 03 71 4f bd 95 fa bf bd 48 36 5b 3d
       0.092804655 -0.050644886 -0.093739666 0.053518564
000080 3c 49 d6 3c 9c 74 d3 3b aa eb fc 3c 1d c5 d7 3c
       0.026157968 0.00645311 0.030874092 0.026339108
000090 3d 3b f1 bc c0 93 77 3d 09 e7 bf bc d0 ad a4 bd
       -0.029447192 0.06044364 -0.023425596 -0.080409646
0000a0 08 82 d1 3c 75 fb df 3c 40 cd ac 3d 86 9e 75 bc
       0.025574699 0.027341584 0.08437586 -0.014991408
0000b0 aa 86 46 3d c5 d2 c6 3c b9 b7 8d bd b4 3b 9e 3d
       0.04846827 0.024270425 -0.06919808 0.07726231
0000c0 ab 77 0a bd 99 aa b8 bb cf c1 87 bd 54 a9 58 bc
       -0.03380553 -0.005635571 -0.06628763 -0.013223965
0000d0 fb e1 ae bc 61 78 c6 3b 15 67 10 bd 50 f1 01 bc
       -0.02134799 0.0060568308 -0.035254557 -0.007931069
0000e0 90 2c 67 3c aa 5b 74 3d f2 42 59 3d 8f 87 6b bd
       0.014109746 0.05965773 0.05304236 -0.057502326
0000f0 b8 5a 35 bd b6 b6 8f 3d 12 ae 0e 3d 98 97 ac bd
       -0.04427597 0.07017271 0.034833975 -0.08427352
000100 c4 3e 9f 3d 18 11 d5 bc 2f 24 b6 bc 75 73 d2 bc
       0.077756435 -0.026009127 -0.02223405 -0.02568982
000110 3b 93 0b 3d db 52 72 bd 36 89 99 bd 2c c2 68 3d
       0.034075957 -0.05916105 -0.07496874 0.0568258
000120 35 29 42 bd 03 d2 49 bb 54 61 ca 3d c1 02 d5 bc
       -0.04740258 -0.0030795343 0.09881845 -0.02600229
000130 b0 1d 24 39 d7 e5 44 3d b0 f7 a6 bd e1 d5 74 bd
       0.00015651318 0.048070755 -0.081527114 -0.059774283
000140 56 f3 5e bd 2f 6d 39 3c ca 3f 96 bd 85 3e ab bd
       -0.054431282 0.011317535 -0.073363855 -0.08361534
000150 2f 29 0f 3d 74 4f ad 3d 96 54 a0 bc 5b e6 41 3d
       0.034951385 0.0846242 -0.019571584 0.047338825
000160 63 6d 15 bb 59 2f 3f bd 8d 8f 04 3d 1e 87 5b 3d
       -0.0022800795 -0.046676014 0.032363463 0.053595655
000170 b5 ca 04 3d 3b d6 be 3d af 9c 80 bd 6f c9 ac 3d
       0.03241988 0.09318205 -0.06279885 0.08436858
000180 a0 96 0c bd 89 f9 a3 bd de b0 6d bd 99 b2 9c 3a
       -0.034323335 -0.080065794 -0.05803 0.0011955082
000190 ad 90 4e bb 7d 82 08 bd b1 21 4b 3d 1a 64 1e bd
       -0.003151934 -0.03332757 0.049592678 -0.038669683
0001a0 fc 7f 79 3d 91 7b 2b 3d 0b a5 c1 3d 32 17 7a 3d
       0.06091307 0.04186589 0.094553076 0.061057277
0001b0 5c 17 ad bd c8 b3 b4 bb a9 d8 56 bd 77 e0 fd 3b
       -0.08451721 -0.0055145957 -0.052452717 0.0077477056
0001c0 65 d5 15 bd c8 0e fd 3c 7f 07 19 3b 6b 36 24 3d
       -0.036580462 0.030890837 0.0023350415 0.04009096
0001d0 87 f9 3a 3a 93 93 94 3b 47 9a 84 3d cb 87 3f bd
       0.00071325194 0.004534194 0.064747386 -0.04676036
0001e0 76 ce 18 3d 33 d9 87 bd ab 76 dc 3d 99 02 6a 3c
       0.03730627 -0.06633224 0.107648216 0.014282846
0001f0 40 4a 15 3d 57 de 26 bd 59 ef 56 bc 03 f5 cc bb
       0.036447763 -0.040739384 -0.013118588 -0.0062547936
000200 7f 1e d5 3c e9 57 8c bd 0f 39 a8 bd 5e 3f 75 bd
       0.026015518 -0.06852705 -0.08214008 -0.059874885
000210 3f ec 0f 3d 7f 06 77 bd e4 9c c4 bd 63 d8 29 3d
       0.03513741 -0.06030893 -0.09600237 0.041466128
000220 75 dd 9a 3d 22 52 1c 3c 22 20 89 bd 2c f0 41 3d
       0.07561771 0.009541066 -0.06695582 0.047348186
000230 10 a6 5a 3c 12 77 9f 3c 23 42 35 bd 3c 20 bb 3d
       0.013345256 0.019465957 -0.044252526 0.091370076
000240 ae 2f 42 3d c5 9d 8e bc 1a 40 be 3c f7 dc ed bd
       0.047408752 -0.017409215 0.023223925 -0.11614411
000250 b0 00 93 bd 37 9b 21 bd c0 25 b1 3d e5 e4 91 3d
       -0.071778655 -0.039454665 0.08649778 0.07123736
000260 95 89 37 bd 05 c8 0c 3d 86 1a c3 bc 5a 00 b9 bd
       -0.044808943 0.03437044 -0.023816358 -0.0903327
000270 b5 0c 37 3c 97 5c f8 3c 1c 33 16 3d f7 33 f9 3c
       0.011172463 0.030317588 0.036669835 0.030420287
000280 77 96 8a 3d aa 34 80 3d 85 f9 aa bd 16 35 46 3d
       0.0676698 0.06260045 -0.08348373 0.04839047
000290 79 bf f7 3c 23 46 fa bd 99 b3 a8 bd 83 dd 21 3d
       0.030242668 -0.12220409 -0.082373805 0.03951789
0002a0 49 be 32 bd 52 5c 26 3d c5 8f 00 3d af 76 ab 3d
       -0.0436385 0.040615387 0.03138711 0.083722465
0002b0 7c c7 b7 bd dc 78 40 3d 79 b1 55 3d d6 26 a1 3c
       -0.089735955 0.04699026 0.052171204 0.019671839
0002c0 ae 80 1e 3d 9e 51 17 bd 44 a0 fd 3c 83 a9 d3 3d
       0.038696937 -0.03694307 0.03096021 0.10335066
0002d0 82 65 21 bd d0 82 c5 3d 0e 47 72 bd 1a a2 67 3d
       -0.039403446 0.09644091 -0.059149794 0.056551076
0002e0 ab ad 53 bc 44 6f b2 bb fb 6d 84 3d 75 a2 db bc
       -0.012919824 -0.005445393 0.064662896 -0.026810864
0002f0 b5 42 7f 3b 4f a6 60 bc dc 10 36 3d 32 a9 63 3c
       0.0038949673 -0.013711526 0.044449672 0.01389532
000300 c9 51 a0 3d 0c 62 46 3c 1f d7 a4 3d 56 fe f7 bc
       0.07828099 0.012108337 0.080488436 -0.030272644
000310 ac c9 aa bc 01 9b 9e 3d 53 52 a1 bc 20 93 4e bd
       -0.020848118 0.077444084 -0.019692576 -0.050433278
000320 8b ce 68 38 81 08 ae bd 40 44 25 bd f9 4d 54 bd
       5.550547e-05 -0.08497716 -0.04034829 -0.051832173
000330 69 9c 84 3c eb d4 0e 3e c6 74 cc bd 20 9d 0f bd
       0.016187863 0.1394841 -0.0998321 -0.035061955
000340 1f f6 82 bd 7d 5a 5d 3d fb 69 4a 3c 2e c8 24 3c
       -0.063946 0.054041374 0.012354369 0.010057492
000350 b0 6a 39 3d 53 f9 9d bd 47 ed 92 3d e6 b7 f1 3c
       0.04526776 -0.077135704 0.07174163 0.029506635
000360 bf a0 bc bc 04 6a 23 3d 0b ba ec bc cf 7b 45 3d
       -0.023025868 0.039896026 -0.028897306 0.048213776
000370 f5 ab 79 bd 4b 77 68 3d 31 a1 84 3d 49 86 4d bc
       -0.060955007 0.05675439 0.06476057 -0.012544223
000380 ea f3 a1 3d fe 39 6e bd e1 d3 04 3c fd 5c 61 3d
       0.07907851 -0.058160774 0.0081071565 0.05502032
000390 08 d2 4f bd a7 b6 2e 3d 38 53 2a bd 8a 31 11 bd
       -0.05073741 0.04265466 -0.04158327 -0.035447635
0003a0 6a c5 56 bc 63 f5 3a bd 5f 83 95 3a 5a d2 82 bc
       -0.013108591 -0.045644175 0.001140695 -0.015969444
0003b0 de c8 d5 3c 07 ce 9e bd 4c 43 2f 3b a8 5d 13 3e
       0.026096758 -0.0775414 0.0026742993 0.14391196
0003c0 a4 92 e7 3d 72 b2 20 3d ec dd b4 bc 05 23 ee bc
       0.11307266 0.03923268 -0.022078477 -0.029069433
0003d0 72 ed 8b bc 99 84 0d bd 59 07 3c bd cb 6a 5e 3d
       -0.017080996 -0.034550283 -0.045905445 0.054301064
0003e0 df a1 9b 3d 11 24 d0 3d 18 16 1d bd e1 0f f5 bd
       0.07599234 0.10163129 -0.03835115 -0.11965919
0003f0 f8 a1 aa 3a be 0d ec bc 75 f7 89 bb 92 95 4d 3d
       0.0013018241 -0.028815147 -0.0042104074 0.05019147

fc2.bias f4 [128]
000000 40 0b 8e 3d f8 c5 cf 3d 6d 2d fe bb c1 f8 2f be
       0.069357395 0.101451814 -0.00775688 -0.17184736
000010 13 ba 4b be 1b 22 23 bc b8 5d 6d 3b ee 68 18 be
       -0.198952 -0.009956862 0.003621919 -0.14883777
000020 21 50 ad 3c bd 2a fb bd de 88 2c 3b f8 2c 96 bd
       0.021156373 -0.12264011 0.0026326696 -0.07332796
000030 e4 84 32 3d 89 5e 99 bb b1 f1 b6 bd f9 0c 3e 3d
       0.043583766 -0.004680459 -0.08932818 0.04639909
000040 e5 33 d3 bb 33 3c 00 be 56 3d 1a be ff 7c 58 bc
       -0.0064453953 -0.12522964 -0.1506246 -0.013213395
000050 e0 7b 0f bc 19 c4 de bd 1e a1 67 be 90 70 1c be
       -0.008757561 -0.108772464 -0.22620055 -0.15277314
000060 c7 5b 09 bd 8b 3b 1c bd 76 1f ee bd ef 6a e0 3b
       -0.03353479 -0.038142722 -0.116270944 0.006848685
000070 ec 10 c6 bd 4d d3 4b be 3c fe ea 3c cf d6 e1 3d
       -0.09671196 -0.19904824 0.028685682 0.110272996
000080 ed d7 03 bb 4c c7 05 be 03 a7 ba bd dd c5 87 3d
       -0.0020117715 -0.13064307 -0.09113886 0.06629536
000090 d3 03 af bd ca 8a ff bd 75 d9 0d be 87 4c b0 bd
       -0.08545651 -0.12477644 -0.13852485 -0.086083464
0000a0 b9 e9 c1 bd 57 12 a1 bc 03 77 93 bd 85 04 de bd
       -0.09468407 -0.019662065 -0.07200434 -0.10840706
0000b0 f7 35 80 be e7 04 05 be f8 81 44 be e1 ed 57 bc
       -0.25041172 -0.12990151 -0.19190204 -0.013179273
0000c0 d5 d9 cc 3c e7 54 68 bd f5 c6 4a 3b d2 7e 9e 3d
       0.025006214 -0.056721594 0.0030941342 0.07739033
0000d0 fa 7d 21 be 9c 06 31 bd a5 8b d7 3d e6 12 0a bc
       -0.15770712 -0.043219194 0.10524682 -0.008427357
0000e0 96 43 08 3c 05 06 40 3d d0 13 31 bd fa bb 20 be
       0.008316895 0.04688074 -0.043231785 -0.15696707
0000f0 95 55 c4 bc 48 d0 86 3c c9 d8 2c be d1 7e 5c be
       -0.02396659 0.016456738 -0.16879572 -0.21532752
000100 d5 ca 2e bd 90 a5 c1 3d 3f f6 81 bc c8 58 4e 3d
       -0.042673904 0.09455407 -0.01586449 0.050377637
000110 67 a5 1f 3d bf 75 93 bc 05 be 89 3c 39 28 dc 3d
       0.0389761 -0.018000482 0.016814241 0.10749859
000120 75 da a4 bd 2e 1b ce bd d1 d8 05 bd af 64 44 be
       -0.0804948 -0.10063778 -0.032677475 -0.19179033
000130 b2 92 18 be 15 92 03 bc 69 4e aa bc e2 d0 b2 bd
       -0.1489971 -0.008030434 -0.020789342 -0.087312475
000140 93 f3 31 3d 63 e3 0c be 83 a2 05 3d 48 0a fc bd
       0.04344518 -0.13758616 0.032625686 -0.123066485
000150 6d c9 2f bd a5 e8 ac bd e3 1c 40 bc ac 1f 9c 3d
       -0.042916704 -0.08442811 -0.011725637 0.076232284
000160 49 95 35 be 2a 1d bb bc 58 84 36 be 58 04 c4 bc
       -0.17732729 -0.022841055 -0.17823923 -0.023927853
000170 90 a4 3b be 6d 52 77 3d b9 e5 7a 3d 8f fd 4b bd
       -0.18324494 0.06038134 0.061254237 -0.04980236
000180 53 59 8e bd 26 2f 79 bd 70 3b 16 bc dc 20 59 3d
       -0.06950631 -0.06083598 -0.009169444 0.053009853
000190 8b 2c 8f bd 09 40 bd bd d7 30 8d bd 00 ec bb bd
       -0.06990918 -0.09240729 -0.06894081 -0.09175873
0001a0 d9 30 90 bd 77 bd 65 bd 9b ea 40 3e 55 45 35 3d
       -0.07040567 -0.05608889 0.18839495 0.044255573
0001b0 88 5e d8 bd c7 6c 80 3d 79 99 9d 3c 52 46 69 bd
       -0.105649054 0.06270748 0.01923822 -0.05695183
0001c0 41 5e 2d 3a 46 48 a2 3c c1 a6 3f 3d fc bd 6b 3d
       0.0006613471 0.019809853 0.04678989 0.05755423
0001d0 dd 71 d2 bd 73 06 ca 3c 9b 2d a9 bd 54 54 1d be
       -0.10275624 0.024661278 -0.08260652 -0.153642
0001e0 2a 96 8a 3b 71 f9 90 3d 10 b0 0e 3e 27 0c cf bd
       0.0042293267 0.07078827 0.1393435 -0.1010974
0001f0 45 27 29 be 74 f2 a8 bd fd b9 92 bc 00 1c 97 bd
       -0.16518886 -0.08249369 -0.017910952 -0.073783875

fc3.weight f4 [128, 128]
000000 26 ff 9e 3d 68 9e 71 3d a1 7a af 3d e7 41 77 bd
       0.077635095 0.05898896 0.085683115 -0.060365584
000010 bc 36 5f bb 23 95 10 3c e4 0b 9e 3d 96 f8 c4 ba
       -0.0034059724 0.008824619 0.07717112 -0.0015027698
000020 fe 17 c8 3b f2 fa 9e bd b4 a6 af 3c 2a 79 34 bd
       0.0061063757 -0.07762708 0.021441795 -0.044060864
000030 9a ea 70 3a 25 24 4f bd 83 31 1f bd 94 4b 27 bd
       0.0009190232 -0.05057158 -0.038865577 -0.04084356
000040 15 9c 46 bd 97 34 26 bd f0 9e 15 be 59 aa 8c 3d
       -0.048488695 -0.040577497 -0.14611411 0.06868429
000050 41 13 d5 3c b2 11 c8 bb d0 a0 2d bd 00 4f 2c bd
       0.026010158 -0.006105625 -0.04238969 -0.042067528
000060 8e dd a3 3d f0 a6 42 3d 5c 8e b0 bd 15 65 bb 3d
       0.080012426 0.047522485 -0.08620903 0.09150139
000070 d6 47 f3 bd 9f 9b 0a bd 93 15 9b 3d dc 20 2b 3d
       -0.11878936 -0.033839818 0.07572474 0.041779384
000080 3c c7 7a 3d 88 10 4b bd 6a 03 e6 3d 1e 14 ae bd
       0.06122516 -0.049576312 0.1123112 -0.08499931
000090 0b 92 e8 bd a3 f3 05 bd 2c 77 df bd d6 bc 50 ba
       -0.113559805 -0.032703053 -0.10911402 -0.0007962709
0000a0 ec 27 2f bd 03 80 1e bd a2 3b 47 bd 93 9f ac bd
       -0.04276268 -0.0386963 -0.048640855 -0.08428874
0000b0 b9 4c 8a bc e0 4a 8f 3d 82 99 e1 bd 07 f8 eb bc
       -0.016882287 0.06996703 -0.110156074 -0.028804792
0000c0 15 b1 8a 3d d0 f1 a7 3d 50 4a 1e 3c 28 f8 ae 3d
       0.06772057 0.08200419 0.009661272 0.08543426
0000d0 ba 39 19 bc 73 1e d7 3c f2 f0 85 bb 55 d4 91 bc
       -0.009352142 0.026259637 -0.004087561 -0.017801443
0000e0 6a 1e a6 bd 5a 9f f8 3c 98 cb 34 3d 7f a0 b5 bd
       -0.0811127 0.030349422 0.044139475 -0.08868503
0000f0 45 04 89 3d ef 7c 62 bd 02 4d 6c bd c3 a0 b5 3c
       0.066902675 -0.055294927 -0.057690628 0.022171384
000100 b4 43 0f 3d ef 8a 3e bd 54 3e 02 3c 40 c8 7e 3d
       0.034976676 -0.046519216 0.0079494305 0.062202692
000110 2d 69 7b 3b f8 97 33 3c ed 31 5f 3d 0c 97 c2 3d
       0.003836225 0.010961525 0.054490972 0.09501466
000120 e2 5b 19 3d 95 41 77 bc 6e 41 79 bd 3b 08 4d bc
       0.037441142 -0.01509132 -0.060853414 -0.012514169
000130 fd 4b 87 bd b2 cc b7 3c a0 59 19 3d 6e ae 37 bd
       -0.066062905 0.022436474 0.03743899 -0.044844083
000140 f4 64 42 3d 3c 4b 1f bd 9d 9f af 3c 47 02 4d bd
       0.047459558 -0.03889011 0.021438414 -0.050051
000150 3a 77 ca 3d f5 a0 af bc b8 58 2d bc 78 16 ad bb
       0.09886022 -0.021439055 -0.010580234 -0.0052822195
000160 b1 9c 58 3c ff eb b0 3d 1c b5 70 3d c5 ec 74 3d
       0.013220952 0.08638763 0.05876647 0.059796114
000170 20 0a 46 bd 68 f8 8c 3d 16 df d6 3d b8 30 f7 bc
       -0.0483495 0.06883317 0.10491769 -0.030174598
000180 09 1b c4 3c 37 62 34 3d 04 6d cf 3d 34 71 8a bc
       0.023938673 0.044038977 0.10128215 -0.016899683
000190 25 4d f3 bc ec 33 28 3d 20 b1 bf bc 80 2f 03 bd
       -0.029699871 0.04106514 -0.02339989 -0.03202772
0001a0 3f 05 94 bc e1 ca a4 3c 84 a9 11 bd ca 40 eb bc
       -0.018068908 0.020116271 -0.035562053 -0.028717417
0001b0 0e c6 aa 3d 54 da 10 3d cb e0 87 bd cb 9c f2 bd
       0.08338557 0.035364464 -0.06634673 -0.11846312
0001c0 7b 88 41 3c 06 69 b8 3d 34 60 4e 3d ff d0 14 bd
       0.011812325 0.09004407 0.050384715 -0.036332127
0001d0 e2 9e 68 39 1e 9e d6 3c 5f 88 5b 3d ab 6a 88 bc
       0.00022184433 0.026198443 0.05359685 -0.016652426
0001e0 b0 8a 28 3d 95 fc 7b 3d 5d de 41 3c ed 88 1b 3d
       0.041147888 0.061520178 0.011832801 0.03797238
0001f0 66 9f 70 bd 7a f3 99 3d 5c ca 42 3d 1f c4 38 3d
       -0.058745764 0.075171426 0.047556266 0.04510891
000200 b7 61 a9 bd dd 57 84 ba 96 22 a7 bc 4b 7f d7 3a
       -0.08270591 -0.0010096986 -0.020402234 0.0016441135
000210 4f 18 a8 bc cd 9a 0b 3d 3d c9 2e bc 70 76 04 bd
       -0.020519404 0.034083176 -0.010668096 -0.032339513
000220 97 9d 48 3c 86 fd d7 bc 49 36 79 bd a9 52 b2 bb
       0.012244604 -0.026366007 -0.060842786 -0.0054419828
000230 21 3e e0 3c c1 b6 17 bd 29 46 c5 bb e2 5a a0 bd
       0.027373375 -0.037039522 -0.0060203266 -0.078298345
000240 54 8f dd bd 69 1c 3f 3c 63 16 73 bd 15 40 a1 bc
       -0.10818353 0.011664488 -0.05934752 -0.019683877
000250 4e 58 9e 3d 27 10 95 3d 11 a9 d5 bb c2 6b 49 bd
       0.077316865 0.072784714 -0.0065203984 -0.04917503
000260 ed c4 ef bc c6 c0 dd bd 0a 13 fd 3c a5 fd 74 bc
       -0.029268706 -0.10827784 0.030892868 -0.014953052
000270 2f e2 71 3d d7 5e bc 3d 2b 3c 21 bd af 35 eb 3c
       0.059053596 0.09197777 -0.03936402 0.028712122
000280 7d ce eb bd 6d 8d e5 3d 3e 76 86 3c b5 ef e0 bc
       -0.11513994 0.112086155 0.016413804 -0.027458051
000290 78 f9 9c 3d a7 75 dd 3d 08 d1 01 3c 7d af 17 3b
       0.0766477 0.10813456 0.007923372 0.002314537
0002a0 3a 3f 99 bc f3 b4 4a bd 01 ea 70 bc a4 65 92 3d
       -0.018706907 -0.049488973 -0.014704228 0.07148293
0002b0 1a 05 2c 3d d2 b8 2e 3d 88 9f 88 bd 4e 39 19 bc
       0.041997053 0.042656727 -0.06671053 -0.009352041
0002c0 a5 ee 66 bd 0b 4a 8d bd e0 9a bb bb 8f 4c 10 be
       -0.056379933 -0.06898888 -0.0057252496 -0.14091705
0002d0 ff 35 95 3c 41 92 96 bd d5 48 8a bc 4b 55 90 3b
       0.018214224 -0.073521145 -0.016880432 0.004404699
0002e0 a9 08 85 bd 0d 50 6c bb a3 a0 8f 3d 6d 7a ae bb
       -0.064957924 -0.0036058456 0.07013061 -0.005324653
0002f0 a0 f7 b3 bd 57 9e 10 3d a2 8f 2f bd 01 50 fc 3d
       -0.08787465 0.035307255 -0.04286159 0.12319947
000300 1a eb 50 bd eb b5 11 be 91 53 7b 3d 7e 46 e4 bd
       -0.05100546 -0.14229552 0.061358992 -0.11146258
000310 fe 96 29 bd 5b 46 32 3d 41 22 77 3d 6e e9 5d bd
       -0.041403763 0.043524127 0.0603354 -0.054177694
000320 8f ef 1a 3d 68 c2 96 bd 89 3c 21 bd 6a cd ea bb
       0.037826117 -0.07361299 -0.03936437 -0.0071656005
000330 97 40 a0 3d a0 85 fa bc 77 ec fe bd 6e a0 68 3b
       0.078248195 -0.030581295 -0.12447446 0.0035496014
000340 36 d7 1d 3d b7 4f 3a bd 91 6f a1 3d 3a e6 bb 3b
       0.03853532 -0.04548618 0.07882608 0.0057342323
000350 b9 f0 b7 bd 1d a8 1e 3d 35 8f d1 bd a6 8b b9 3c
       -0.08981461 0.038734544 -0.10232393 0.022649597
000360 70 21 d0 3d 7c 2d c9 3c 0e 02 78 3d 3f b5 44 3d
       0.10162628 0.024557821 0.060548835 0.048024412
000370 af 87 99 3c 6e 7c 05 bd 58 e2 bf bb d5 0a d4 bb
       0.018741457 -0.03258937 -0.0058558397 -0.006471018
000380 13 f6 16 3d 76 00 86 bc 20 91 4e bd 97 2c 03 bd
       0.03685577 -0.016357642 -0.05043137 -0.032024946
000390 96 4e 9b 3d 4c e5 12 bd 9f 20 e4 bd 46 02 8e 3d
       0.075833485 -0.035863206 -0.111390345 0.069340274
0003a0 59 a5 c5 3c 05 91 95 3c d7 d9 c6 3b aa 10 a2 b7
       0.024126695 0.018257627 0.006068449 -1.9319665e-05
0003b0 56 12 00 3d 07 fd 02 bd 8a ff 20 3d 19 7f 9d 3d
       0.031267487 -0.031979587 0.0393062 0.076902576
0003c0 47 dc b0 bd 82 e9 bf bd 13 bb 6a bc 48 9f b2 bb
       -0.086357646 -0.0937071 -0.0143268285 -0.0054511167
0003d0 44 0a 8d bb 53 2f 02 bd 9e ba 06 3d 02 5c 20 bc
       -0.0043042023 -0.031783413 0.032892816 -0.009787561
0003e0 a2 85 88 bd 2d 25 f4 bd 4d bb 12 bd c8 38 b9 3d
       -0.066661134 -0.11921153 -0.035823155 0.09044033
0003f0 44 94 ec 3c 57 a0 32 bb 6d 20 5a 3d 3b 09 5b bd
       0.028879292 -0.0027256215 0.05325358 -0.0534756

fc3.bias f4 [128]
000000 77 53 47 3e b7 b6 05 bc fb 9f 45 3e 10 0a 00 be
       0.19465433 -0.008161238 0.19299309 -0.12503839
000010 fa e8 20 3d db bf 97 b7 8d 66 41 bd 3b 85 d1 bd
       0.039284684 -1.8089942e-05 -0.04721694 -0.1023049
000020 bd a5 ca 3d cf 24 12 bb 9b 1e 01 3d df 9a 31 3e
       0.09894893 -0.0022299772 0.03152333 0.17344235
000030 9e d4 0d be bf 63 2a bd 44 85 c7 3d 5b 0a 09 3e
       -0.13850638 -0.04159903 0.09742215 0.13382857
000040 35 46 fc 3c 72 53 90 bd 13 60 db 3c 7f ce d8 3d
       0.030795196 -0.07047166 0.02677921 0.10586261
000050 9c 76 eb bd 92 49 9b 3c 30 dd cf 3d e7 66 96 be
       -0.11497232 0.01895598 0.1014961 -0.29375383
000060 3e 04 dd bb 30 cb 76 bd 30 d5 b4 bd 62 8f df bd
       -0.0067448905 -0.06025237 -0.08829725 -0.1091602
000070 27 30 24 3d 90 6a 40 3e d1 8e ad bd 05 78 4d bd
       0.040084984 0.1879065 -0.08474506 -0.050163288
000080 9d b2 97 bd 6d e0 e9 3d 76 77 b9 3d ef 50 86 3c
       -0.07407115 0.11419759 0.090559885 0.016396014
000090 13 1b 1e 3e 83 2f c0 3d 64 21 42 3e a6 9e d8 bc
       0.15440015 0.09384062 0.1895805 -0.026442837
0000a0 bb bc 5a 3e e4 8b 2d 3e 5e 67 57 3e 26 8b 21 3e
       0.21361057 0.16947895 0.21035525 0.15775737
0000b0 4b fe a6 bd ee 6f b1 3d 5e 21 95 3d 7d d5 4b bd
       -0.08153971 0.08663927 0.07281755 -0.049764145
0000c0 ad 80 1b 3e ab 57 83 bc d9 b9 a5 be 97 87 44 3e
       0.15185805 -0.016033014 -0.32368353 0.19192348
0000d0 8d 3a 38 be 2c 02 15 bd ca 78 86 bd bc ed e5 3d
       -0.17991085 -0.036379024 -0.065660074 0.11226985
0000e0 e1 64 2b be ae d9 e9 bd 1d 20 41 3e ad 50 e8 3d
       -0.16737701 -0.11418472 0.18859906 0.11343513
0000f0 be c8 e9 bc 8e 17 0f 3e 5e 09 55 3c 1d 63 b3 bd
       -0.028538104 0.13973829 0.013002722 -0.08759139
000100 c4 19 07 be 30 6f 0e 3e 88 86 80 3e 5a cc 91 bd
       -0.13193423 0.13909602 0.2510264 -0.07119055
000110 3d b5 ed 3d 7b 20 8a 3c 84 0d aa 3d 06 03 c0 3d
       0.11606834 0.016861191 0.08303359 0.09375577
000120 40 d1 e7 bd 7a 48 f5 3d 88 52 4f 3e ee 03 0a be
       -0.11319208 0.119767144 0.20246327 -0.13478062
000130 f3 17 03 3e 03 48 1b be 13 e6 d4 3c 2b 96 3a 3d
       0.12802105 -0.15164189 0.025988614 0.045553368
000140 5b 1f 95 bd 01 0e ba bd e3 a1 2a 3e 15 ba 34 3d
       -0.07281371 -0.09084702 0.16663317 0.044122774
000150 85 4f 93 3d 94 57 58 3e 0e 42 c2 bd 62 5c b9 3d
       0.071929015 0.21127158 -0.09485255 0.09050824
000160 24 45 05 3e 03 9d 28 3d bb 0e 11 bd 8f 7c 24 be
       0.13014656 0.041165363 -0.03541444 -0.1606314
000170 02 84 a4 bc de 46 a7 3b f9 7b 05 3e b4 4b 86 3d
       -0.020082477 0.0051048836 0.13035573 0.06557408
000180 84 d4 76 bd a6 b7 ff 3d 94 24 e9 bd 59 23 b9 3d
       -0.060261264 0.124862 -0.1138393 0.09039945
000190 78 75 ce bc 7d 4f f3 bb 32 b6 5d bd b9 bd 3c 3e
       -0.025202498 -0.007425247 -0.054128833 0.18431748
0001a0 73 46 d0 bc 34 7f 3c 3e 9d 56 ce 3d 3b 4d e9 3d
       -0.025424218 0.18407899 0.10075114 0.11391684
0001b0 1f cb fe 3d 03 22 38 be ef 90 54 3e f4 c6 94 3d
       0.12441086 -0.17981724 0.20758413 0.0726451
0001c0 fb 0f dd bc 92 2c b8 bd 9a 87 cf bd 8b 1b 37 3c
       -0.02698516 -0.08992876 -0.10133286 0.011176
0001d0 31 91 45 3e 92 bf 14 3e 33 24 f1 3d 4e 1d 9a 3d
       0.19293667 0.14526203 0.117744826 0.07525121
0001e0 a5 5a af bd c1 ba 84 3d 24 ea 3d 3d 5b fd ea 3d
       -0.08562211 0.06480933 0.046365872 0.11474105
0001f0 66 58 03 3e a9 5c d9 bd 17 60 ad 3c a9 ac 1a be
       0.1282669 -0.10613377 0.021163983 -0.15104927

final.weight f4 [1, 128]
000000 53 bc d0 3c b6 35 dc bd f9 b8 c0 3c b0 c8 f9 bd
       0.025480425 -0.10752432 0.023525702 -0.12196481
000010 e6 1e fb 3c 28 dd f9 bd 89 a6 a9 bd b4 14 13 be
       0.030654382 -0.12200385 -0.08283717 -0.14363366
000020 3e 8d 76 3d cd cb ce bd 82 6e 5c bd e2 60 e8 3c
       0.060193293 -0.10097466 -0.053816326 0.02836651
000030 c8 dd 0a be 7b b8 e8 bd 67 91 a3 3c b8 13 12 3d
       -0.13561165 -0.11363312 0.019966794 0.035663337
000040 49 6e e5 bd 77 26 df bd ce 5a c6 3c 1c 89 14 3d
       -0.11202676 -0.108960085 0.02421322 0.03626357
000050 f1 b2 65 bd 4f a9 00 be 5b 3e 0e 3d 6f dd e9 bc
       -0.056078855 -0.12564586 0.034727436 -0.02854797
000060 18 c4 f5 bd ac bb 50 3d b9 b6 04 be 36 ae 0b be
       -0.120002925 0.050960228 -0.12960328 -0.13640675
000070 bf 1e c2 bd 0e 32 13 3d 8b c7 d0 bd 1f d5 cf bd
       -0.094785206 0.035936408 -0.1019431 -0.101480715
000080 88 90 0d be 0e b3 9c 3c 78 36 df 3c a7 ba ab 3c
       -0.13824666 0.019128349 0.027247652 0.020963026
000090 9a 52 ea 3c e6 21 f2 3c 1f 71 fe 3c 7a f6 fd bd
       0.02860384 0.02955718 0.0310598 -0.12400527
0000a0 01 ed 04 3d 29 31 f3 3c fb 04 d2 3c 75 22 d2 3c
       0.032452587 0.029686527 0.02563714 0.025651196
0000b0 e8 36 09 be 6c 5a f1 3c e0 18 e5 3c a4 92 c8 bd
       -0.13399851 0.029462062 0.027965963 -0.097935945
0000c0 96 af f7 3c 71 ac 03 be bf 52 f4 bc 33 7d bf 3c
       0.030235093 -0.1285875 -0.029824613 0.02337513
0000d0 05 fb 10 be d6 1b 43 bd 9f dc 0c be 2a 3d c7 3c
       -0.14158256 -0.04763397 -0.13756035 0.024321157
0000e0 78 3a 1e bd f9 34 e6 bd c8 32 a7 3c db f0 bb 3c
       -0.03862998 -0.112405725 0.020409957 0.022941997
0000f0 0e 46 d4 bd 18 f5 14 3d 8c ca cd 3c 59 ad 1b be
       -0.10364924 0.036366552 0.025120996 -0.15202846
000100 13 25 d9 bd 72 0d 11 3d 12 1a 09 3d 57 6f cc bd
       -0.106027745 0.035413213 0.03347213 -0.09982174
000110 b0 73 b7 3c 6d 74 e9 bd d7 a3 bb 3c 26 6f de 3c
       0.022394031 -0.113991596 0.022905273 0.02715261
000120 20 6d 6a bd 4f 3f 21 3d 9b 1f fd 3c 08 d7 dd bd
       -0.057232976 0.039367016 0.03089886 -0.108320296
000130 3f af cc 3c 7f b4 8b bd eb 8a d9 bd e1 0e 70 3d
       0.024985908 -0.06821536 -0.106221996 0.05860794
000140 46 c9 c4 bd 6f 2b e9 bd 57 c1 11 3d ff e8 06 3d
       -0.09608702 -0.113852374 0.035584774 0.032937046
000150 d5 01 2c 3d 0d a5 bc 3c c9 81 54 bd d4 f4 1b be
       0.041993935 0.023027921 -0.051881585 -0.15230113
000160 2a 9f 08 3d fb 8b 00 3d af 29 fe bd 47 1a f9 bd
       0.033354916 0.031383496 -0.12410294 -0.12163215
000170 fe b9 04 be 62 72 08 be 33 0d e3 3c db d4 d0 3c
       -0.12961575 -0.13324884 0.027716255 0.025492122
000180 12 84 ca bd 17 dd e3 3c c9 6e d6 bd a9 b9 cb 3c
       -0.09888472 0.027815385 -0.10470349 0.024868803
000190 98 f7 e3 bd d5 c2 00 be a4 2b 0e be e9 fd 0f 3d
       -0.11131209 -0.12574323 -0.13883835 0.035154257
0001a0 39 25 e0 bd f9 8d d7 3c 21 29 83 3d 52 95 59 3d
       -0.109446 0.026312815 0.06404329 0.05312092
0001b0 e7 5c dc 3c 0c e2 42 bd 1c 7b c0 3c 54 09 d1 3c
       0.026899768 -0.047578856 0.023496203 0.025517143
0001c0 d6 35 ef bd 55 6e 3a be 76 c2 af bd 63 43 7e bd
       -0.1168019 -0.18206151 -0.08582012 -0.062075984
0001d0 29 6a e6 3c dd 7b 2b 3d f6 a5 e3 3c 8d 19 c2 3c
       0.028126793 0.041866172 0.027789097 0.023693824
0001e0 67 84 7a bd 20 20 be 3c 49 65 46 3d cf 59 0f 3d
       -0.061161425 0.023208678 0.048436437 0.034997758
0001f0 22 7e 06 3d 1b 2e 2f bd 74 b2 11 be 56 4f e6 bd
       0.032835133 -0.04276858 -0.1422823 -0.11245601
